PatchTST_supervised/checkpoints/PatchTST-01_PatchTST_ETTh1_ftM_sl336_ll48_pl96_dm16_nh4_el3_dl1_df128_fc1_ebtimeF_dtTrue_test_1/checkpoint.pth (torch, 359295 bytes, 65 tensors)

model.backbone.W_pos f4 [42, 16]
00000000: 2df6 20bc 2d9e f23b b90a c73c ae5d 4a3c
00000010: 2f73 873c d5f2 6b3c 64ba 0f3c 3d28 5e3c
00000020: 7535 bf3c ee48 65bb bb76 873c 393e 6a3c
00000030: 725b bbbc 8c66 ea3b a387 663a 144a 303a
00000040: 57b5 8a3c bf70 8bbc 831a b5bb 1dd8 fcbb
00000050: 7cec e0bc 5918 2fbb 5599 5bbb 102d bfbb
00000060: d580 263c 93c3 febb 1f8c 9bbc 3d85 643b
00000070: cae0 b8bc fc40 0f3b d9d7 68bc 96c8 fa3a
00000080: 725e 22bc 5611 c23b 5e4d 9e3c f0e3 e1ba
00000090: 3486 b13c 57c8 883b f5fc f6b9 a44e 2bbc
000000a0: 7d53 3eba 3951 7f3c 6478 6e3c 2e83 63bc
000000b0: 6c67 b53c db4a 14bc b94a 03bc ba90 8a3c
000000c0: 3c63 5ebc 7d7c 64bc dcb1 023d 6745 8b3c
000000d0: 752d b03c 828b 873c f212 a1bb 8384 f73a
000000e0: 2d73 a43c b899 9e3b 25e7 88bb 4a7c ab3a
000000f0: 77df e8bb ef45 95bc 7825 d3bc 04be 8e3c
00000100: 4809 8cba de77 313c 2412 07bc 0856 4eba
00000110: f0a1 54bb e3cf 423c a366 de3b 68e9 863b
00000120: 4398 0e3c 007c 0f3c 7c11 573b 0e7c 453c
00000130: 8c7f 543c dda5 afbc febd 9d3c e674 a83c
00000140: 0a36 a83b 353c cbbb b449 7a3c d0f8 ee3b
00000150: 8ef2 d3bc 9744 0c3d ac8b bb3b 7bd7 c0bc
00000160: b667 3bbb d501 27bc 444c 753c ac06 1bbd
00000170: d697 723c 3633 e6bc 6e84 cc3b 76dd f8bc
00000180: 31d3 523c 04bf 333c 9fa2 2b3d 1b50 d7ba
00000190: deeb acbb d458 a2bc 58e5 edbb 8ab1 24bc
000001a0: 5f36 b33c 525b 703c 608d 663b ad11 aebc
000001b0: b5fb b13c 513b 2c3a 08ad b03c d1d7 ffbb
000001c0: 1a79 2c3c 1c01 9bbb 1f51 a53c 16ac 63bc
000001d0: aeba 0b3c 9224 823c 7ade 9bbc 5a12 cdbb
000001e0: 5f6d 9ab9 51c3 a83b 45ac 073c 2114 ddbc
000001f0: b8ed c7bc 058a 33bc ffe6 62bc c91d 723b
00000200: 24e6 a33a f240 4b39 bf82 c13a ceeb f7b7
00000210: f426 3c3c 99b5 253b 0dae 44bc a23e a9bc
00000220: 0236 383c 2c76 66bc 76b6 22bc 9a95 32bc
00000230: 9573 603c d04a 07bc 861c d9bc 9935 0fbc
00000240: e747 8b3b 76a2 933c 6bd1 a93c d670 e9bb
00000250: 3180 a8bc 46e7 023c 501e 053c 8e9f 57bc
00000260: 08bb d13b ef3f 04ba 66b9 143c b2d0 30bb
00000270: cc1b 09bd 08ab 7a3b 58f4 9dbc 05ef 15bc
00000280: 00ae 14bc da95 573b eeec 9d3c 59c0 31bc
00000290: 0914 c9bb 4078 8c3b cd63 49bc e257 30bc
000002a0: 518c ce3c d3ca 11b9 2f5b dd3c ec50 67bc
000002b0: 630c 5aba fefc 373b ef72 87bb 29ad 9d3b
000002c0: c88e 493c 5299 c83b 57c5 ad3c 6aab 0dbc
000002d0: a97a 78bc 94b3 7cbc 0219 373c 5020 9c3b
000002e0: acc8 23bc a2f8 8f3c 77ea 083c c935 443c
000002f0: 6fd7 72bc 8bb0 fd3b 3629 a3bb ae38 b0bb
00000300: 855e afbb 5d09 3a3c f136 96ba 218c eb3b
00000310: d299 443b 9000 f23b a28b 8abc 7036 3e3b
00000320: c385 82bc bc1d 4abc 6ad7 283b 419b 3f3b
00000330: 5cf2 183c 98d9 993c 6ad8 f1ba 9ad7 dd3c
00000340: 9847 55bc 195f bebb 3d71 8c3c d38a 4f3c
00000350: 3295 c93c da47 083a 24c3 da3c 36c9 873b
00000360: 0e13 bebc 0ea0 b4bc feb1 edb9 25ec df3b
00000370: e94d a23c ef9c aabc 6ed2 46bc bdc6 213c
00000380: 8a93 67bc 27d9 07bc c966 0ebc 4f96 5f3c
00000390: 2cd1 96bb 1414 51bc 6cb0 a0ba 70f1 4d3c
000003a0: 6db9 92bb 8957 4ebc c362 8b3a d01b 80bc
000003b0: 3af2 053b 1326 b2ba 587e a5bc 00d0 07bc
000003c0: b970 cfba 3ad9 5c3c 0715 333c 1df6 3fbc
000003d0: cded a23c 60af 3c3c 83fe dcb9 bcd2 b0bb
000003e0: 46b4 9f3a acbf df3c f910 18bc 7a35 873c
000003f0: 474c 61bb 9ab8 2e3c dc00 823c 39bb a33c
-0.009824318 0.00740411 0.024297105 0.012351437 0.016534416 0.014401157 0.008772466 0.013559398
0.02334092 -0.0034986096 0.016536107 0.014297062 -0.022870753 0.007153338 0.0008794015 0.00067249057
0.016932173 -0.017021535 -0.005526842 -0.0077161924 -0.027456515 -0.0026717393 -0.003350814 -0.0058342293
0.010162552 -0.007774779 -0.018987713 0.0034869455 -0.022568125 0.0021858802 -0.014211618 0.0019133266
-0.009910213 0.0059224768 0.019324 -0.0017234068 0.021670438 0.004174273 -0.00047109244 -0.010455761
-0.00072603655 0.01558333 0.014555071 -0.013886256 0.022144042 -0.00905105 -0.008013421 0.016914714
-0.013573464 -0.013945696 0.0319079 0.017000867 0.02150605 0.016546015 -0.0049155885 0.0018884096
0.020074451 0.004840102 -0.004177945 0.0013083306 -0.007106717 -0.018221823 -0.025774702 0.01742459
-0.0010683918 0.010831801 -0.008244071 -0.0007871096 -0.0032445155 0.011890384 0.0067871376 0.0041171797
0.008703294 0.008757591 0.0032816818 0.012053503 0.012969863 -0.021441394 0.019255634 0.020563554
0.005133395 -0.0062022456 0.015276361 0.0072928444 -0.025872495 0.0342451 0.0057234373 -0.02354025
-0.0028595752 -0.010193308 0.014971796 -0.03784816 0.014806708 -0.028100591 0.006241373 -0.030379038
0.012867735 0.010970835 0.041903134 -0.0016427072 -0.005277141 -0.019817747 -0.007260006 -0.010052094
0.021876512 0.01467021 0.003517948 -0.021248663 0.021726469 0.0006570118 0.021566883 -0.0078077097
0.01052692 -0.004730357 0.020180283 -0.013896009 0.008528395 0.015886579 -0.019026984 -0.006258291
-0.00029454657 0.0051502367 0.008280818 -0.026987137 -0.024405345 -0.010958199 -0.013849019 0.0036944023
0.00125045 0.00019383783 0.0014763697 -2.95545e-05 0.0114838965 0.0025285243 -0.012004388 -0.020659748
0.011243345 -0.01406626 -0.009931197 -0.010899926 0.013699432 -0.008257583 -0.026502859 -0.008740806
0.004250515 0.018021803 0.020729741 -0.007124047 -0.020568939 0.00798971 0.008124903 -0.013160599
0.0064004697 -0.0005044927 0.009077406 -0.002697986 -0.033473775 0.0038248915 -0.019281551 -0.009151225
-0.009074688 0.0032895715 0.019278016 -0.010849082 -0.0061364216 0.004286796 -0.012291861 -0.01076314
0.025213392 -0.00013903835 0.027021019 -0.014118414 -0.0008317886 0.002807438 -0.004133574 0.004811902
0.012302108 0.006121793 0.021212263 -0.008646825 -0.015165963 -0.015423674 0.011175396 0.004764594
-0.009996574 0.017574612 0.008356682 0.011975714 -0.014821871 0.007741993 -0.004979278 -0.0053778505
-0.005351844 0.011354771 -0.0011460466 0.0071883355 0.002999891 0.007385321 -0.016912285 0.0029024146
-0.015932923 -0.012336191 0.0025763162 0.0029236826 0.009335127 0.018780515 -0.0018451337 0.027080346
-0.013017558 -0.0058096764 0.01714384 0.012667376 0.024607275 0.0005198695 0.026704378 0.0041438593
-0.023202445 -0.022048976 -0.00045336777 0.0068335705 0.019812541 -0.020826785 -0.012135131 0.009874043
-0.014134297 -0.008291519 -0.008691498 0.013646676 -0.004602572 -0.012761135 -0.0012259609 0.01256977
-0.004477671 -0.012594112 0.0010634292 -0.015638262 0.0020438568 -0.0013591669 -0.020201847 -0.008289337
-0.0015826441 0.013479525 0.010930306 -0.011716393 0.019888783 0.011516422 -0.00042151296 -0.0053962152
0.0012184463 0.027313076 -0.00928139 0.016504992 -0.003437774 0.01066413 0.01586955 0.019986736

model.backbone.W_P.weight f4 [16, 16]
00000000: 33fb 373e 7422 babd de89 efbd a363 fb3d
00000010: 7648 6f3e 94ea 743d a551 2abe c3e8 67be
00000020: 1450 153e 63bc 6f3d 1a6e 3b3e c9d1 1abe
00000030: 5b1d 443e 5769 7e3e 2e99 d03d ca8d 6a3e
00000040: dfdf 0c3d 40b8 a83d 700b e1bc 4eaa 343d
00000050: 7f4c 70be 180e 3dbe e753 08be 1a7e 4bbe
00000060: e1e4 123e 3ed2 e23d 108b 9f3d 9d82 393e
00000070: b2a2 f2bb d55a 29be 9e15 f93d d83c ae3c
00000080: dd52 60be 77f3 3abd 601a dd3d 40b4 4b3e
00000090: f455 13be 2cbd 4c3e 1d11 0cbe 1258 4fbc
000000a0: 5eab acbc 0325 b2bd a9f3 463d 074b 84be
000000b0: b79e cbbd 50ad 95be 8561 6dbe 13bc 6a3d
000000c0: 57f8 33be 478c 3ebe 70bf 983d 6d8d 90be
000000d0: 8286 23be 2ef4 f5bd 3dde 453e 31ee e33b
000000e0: f710 4bbd 1297 2e3e 09da 223e f107 6bbd
000000f0: aff1 61be 628b 9c3d ca6d 903c b408 43be
00000100: f0f1 ddbc 6a45 84be 33db 6fbe 51be cabd
00000110: 7b47 b4bd ab7a 96bd 2874 5a3b d700 2a3e
00000120: 1b31 d63c 2070 573e 2d65 b23c 9da0 95bd
00000130: 4881 25be 40df 4dbe 4daf 25bc 59be 203c
00000140: 8e91 b53c eaec 61bd 4b5b 14bd dbbb 79be
00000150: a2a4 b03d 9ade 223e 6609 76be 3f78 3ebe
00000160: c96e 6cbe c0b7 303e 7bc2 80bb 09fe 83be
00000170: 37be 173e 1d9e c1bd 62af 613e ccb1 273e
00000180: 5807 513d a77e a2bd e636 2e3c 6d11 cdbd
00000190: 9e1b 58be ef05 a1bc 4a0b 4e3e f0f9 c43d
000001a0: ae65 a43d 1831 20be 3d01 69be 503a 8abe
000001b0: 5365 84bd e084 5e3c be95 35be eb68 d23d
000001c0: a047 2b3e 3e86 283e e00a d83d 49b8 613e
000001d0: f09a 773e a492 743e 8edd d63c 63dd 183d
000001e0: ec21 923c 6c2e 6b3c cc67 b1bc bd7f 8c3e
000001f0: feb0 b03d 2a62 96bd 06c8 cb3d 71a1 16be
00000200: 3083 69bd 03c4 073e b112 1dbd 8010 293d
00000210: 8856 ed3d e014 803d d342 b03d c0fc 76bd
00000220: 8954 4ebc 3939 913d a383 f53c b632 503e
00000230: 18b6 28be bc1f 36be 032f 833e 7c4a ebbd
00000240: c627 70be efc7 74be 3347 823d d5c0 1c3e
00000250: f0ef ebbd 0a56 3cbe 674a 073e 7334 093e
00000260: e74f f93d 1de2 8d3d d771 52be cde1 01be
00000270: 56aa 88be a85b 2fbe 3030 6bbd 1a03 07bd
00000280: ccac 833e da6b de3d 15c7 7f3e fa69 2fbd
00000290: 4cf5 483d 286c ba3d d553 5fbe a4aa cebd
000002a0: 9d16 cebd 288c 693d e34e cf3c b288 c1bd
000002b0: 5b9e 46bd 8be7 16bd 450d 9fbd 5e7e 26be
000002c0: 773c 2b3c 976f 41be aad9 4abe 806a 7e3e
000002d0: 2c66 113e 918a e4bd 32d5 663e db4b bdbd
000002e0: 4056 fbbb a8f9 2b3e 715f 4b3e 57a0 4abe
000002f0: 87c1 363e bb71 6e3e fa13 723e 8582 d3bd
00000300: b100 36be 3c48 363e 31da 343e 86ea f4ba
00000310: 97cf 27be b232 1f3e e525 683e be25 67be
00000320: d4f0 1b3e 5938 943c 606b 47be 81b5 febd
00000330: 38f8 60be 78e1 87be 363c c43d 0139 163e
00000340: 14f5 78be 11c1 a73d 6b10 7bbc 2f8c 87be
00000350: 94fa 3cbe b0ec 9d3d 05b5 1a3d 727f 5d3e
00000360: eeae 6d3e 021f 813e 3f7e 3fbd fa11 e1bd
00000370: 1aa7 78bd 770d 6ebe 8ddf 653e e5cf 0abe
00000380: db76 6c3e 59ba 623e d47a 363e 252b 323e
00000390: d330 6cbe 9013 46bc 5faf fb3d 8abe d7bd
000003a0: cb29 1a3d 5a5f 1d3e 1dcd 3a3e 0cbc 1cbe
000003b0: c0f4 313e 84d7 98bc 5661 e73d 6e6e 0cbd
000003c0: 43c2 49be 48ed 073e b8f2 b7bd 1588 503e
000003d0: 96af 92bc 3071 cebc 5526 733e 5707 54bc
000003e0: 4339 5d3d 9848 66be fcf3 88bc e9d2 363e
000003f0: 538a 4a3e 8eaf e5bb 6304 0b3d a0d3 263e
0.17966919 -0.09088603 -0.11696218 0.122748636 0.23367485 0.059794024 -0.16632707 -0.22647385
0.14581329 0.05852927 0.18303719 -0.15119089 0.19151823 0.24844871 0.10185467 0.2290565
0.034393188 0.08238268 -0.027471274 0.044107728 -0.23466681 -0.18462408 -0.13313256 -0.19872323
0.14345123 0.11075257 0.07790196 0.18116231 -0.0074046487 -0.16538556 0.12162326 0.021269247
-0.2190661 -0.045642342 0.10796046 0.19892979 -0.14388257 0.19994038 -0.13678403 -0.012655275
-0.021077808 -0.08698466 0.048572216 -0.2583849 -0.09942382 -0.2923379 -0.23181732 0.057308268
-0.17575203 -0.18608199 0.07458389 -0.282329 -0.1596928 -0.12009464 0.19323058 0.006955885
-0.049576726 0.17049816 0.15903486 -0.05738062 -0.22064851 0.07643773 0.017630477 -0.19046289
-0.027092904 -0.2583421 -0.23423462 -0.09899581 -0.08802696 -0.07347616 0.0033333395 0.16601883
0.026146462 0.21038866 0.02177676 -0.07306025 -0.16162598 -0.20104694 -0.010112596 0.009811007
0.022164132 -0.05515758 -0.036219876 -0.24388067 0.08625151 0.15905228 -0.24027023 -0.18600558
-0.23089136 0.17257595 -0.003929434 -0.2577975 0.14818655 -0.09453986 0.2203956 0.16376418
0.051032394 -0.07934313 0.010633206 -0.10013089 -0.21104285 -0.01965615 0.20121494 0.09617984
0.08027206 -0.15643728 -0.22754379 -0.26997614 -0.064646386 0.013581485 -0.17732903 0.10273918
0.16726542 0.1645746 0.10548949 0.22042955 0.24180198 0.23884064 0.026228692 0.037320506
0.01783844 0.01435433 -0.02165594 0.27441207 0.086275086 -0.07342942 0.09950261 -0.14710023
-0.057009876 0.13258366 -0.038347904 0.0412755 0.1158877 0.062539816 0.08606496 -0.060299635
-0.012593397 0.070909925 0.029969996 0.20331845 -0.16475713 -0.17785543 0.25621805 -0.11488816
-0.23452672 -0.23904394 0.063612364 0.15307935 -0.11520374 -0.18392196 0.13211976 0.13398914
0.12173443 0.06927893 -0.20551239 -0.12683792 -0.26692456 -0.17124808 -0.057419002 -0.032961942
0.2571777 0.10860415 0.24978288 -0.042825677 0.04906206 0.091026604 -0.21809323 -0.10091141
-0.10062907 0.05701843 0.02530617 -0.09449901 -0.048490863 -0.03684191 -0.07766203 -0.16259143
0.010451428 -0.18890224 -0.19809595 0.24845314 0.14199132 -0.11159242 0.22542265 -0.09242984
-0.007670194 0.16794455 0.19860627 -0.19787727 0.17847262 0.23285572 0.23640433 -0.10327629
-0.17773701 0.17800993 0.17661358 -0.0018685616 -0.16387783 0.15546682 0.22670706 -0.22572991
0.15228587 0.018093275 -0.19474554 -0.12436963 -0.21969688 -0.26539207 0.09581797 0.14670183
-0.2431224 0.08191121 -0.015323739 -0.2647414 -0.18454963 0.0771116 0.03777029 0.21630648
0.23211262 0.2521897 -0.046751257 -0.10989757 -0.060706235 -0.23247324 0.22448559 -0.13555868
0.23092215 0.22141398 0.17820293 0.17399271 -0.230655 -0.012089625 0.12289309 -0.10534389
0.037637513 0.15368405 0.18242307 -0.15306109 0.17378521 -0.018657453 0.11297862 -0.034285
-0.19703011 0.1327411 -0.08981842 0.20364411 -0.017905992 -0.025200456 0.23745091 -0.012941203
0.054009687 -0.2248863 -0.016717903 0.17853893 0.19779329 -0.007009453 0.03393973 0.16291666

model.backbone.W_P.bias f4 [16]
00000000: 7c40 40bd e953 d93c 031b 45bd 99dc 5c3d
00000010: 477e 073e 6893 0ebe 23ea 5bbe 29fe 62bd
00000020: 504c e7bd 8d5e a7bd 7ebc de3d b9a0 3cbe
00000030: ae80 b7bd 71e3 44be ab02 cdbc 4dfe 35bd
-0.046936497 0.02652927 -0.048121464 0.053921316 0.13231765 -0.13923419 -0.21476035 -0.055418167
-0.11293852 -0.08172331 0.10875796 -0.18420686 -0.089600906 -0.19227387 -0.025025686 -0.044431973

model.backbone.encoder.layers.0.self_attn.W_Q.weight f4 [16, 16]
00000000: 0c2a b9bd b869 19be f70e 813e c033 313e
00000010: 0192 733e 57d0 34be d547 e9bd 9e45 18be
00000020: 5891 4c3e a964 ce3c 80b0 50be 2ec0 c2bd
00000030: 07ec 4cbe b153 05be f2b7 483d 029b f4bc
00000040: 3ef0 fb3d 7963 43be 6efc 0c3e 67a9 ce3c
00000050: 9c6c 853e d7fb 4abe 1fbe ce3c 9ae1 74be
00000060: 7bbe ccbd 238b 8f3d e1e1 b93a 1476 6abe
00000070: 4219 603e dd82 153e b346 85be a46d 083e
00000080: 8e44 ff3b 2b36 dbbd a803 84be f252 f83d
00000090: d4c4 ecbc e578 063e 8e7b b03c cd1a 3dbe
000000a0: 000f 9cbd 6224 36be 307b c4bd 38cc 413e
000000b0: 49e4 6a3d 33a3 55be 35df 443e af6e 29be
000000c0: 67ac 55be 338e 633e 221c 95bd 2dc8 14be
000000d0: d137 ad3d 23fa de3d 65c0 483e 79b8 e9bd
000000e0: dd4f fd3b 4082 fa3d 6801 433c 8716 503e
000000f0: 9f0d 1bbe f4e7 803e b694 3b3e 800b 4a3e
00000100: 1dfd 1fbe 63e1 2fbe 9a1b 5c3e b0d5 953d
00000110: 58be 27bd bb28 bbbd 290c 0bbe 1385 3bbe
00000120: baf8 d8bd e931 18be 580c 13be 1a1b b83d
00000130: 0120 dd3c 718e 3ebe 24f6 213e 0edf debd
00000140: 9b6e 1a3d 8597 033e 89dc 04bd 7892 20be
00000150: f1f0 823d 38e7 19be dfb9 e83d b235 a63c
00000160: 8256 31be e571 e53d 241f dfbd cf19 fe3d
00000170: 4f7c 2abd 7214 13be 45ce 363e c2ab 49be
00000180: 07fb 6d3e 9914 843e 860d 68be 8772 11be
00000190: 5a0c 083e 93d1 69bd ff98 473e ba55 113e
000001a0: 2d01 f73d 6d3a 203c eb8b efbd 50cf 113e
000001b0: 3d12 2bbd a12c 223e ee33 89bc d085 97bd
000001c0: 4e0c 703e 2e13 4c3d 23aa 59bd ea93 1f3c
000001d0: 3fd7 bb3d d5e3 54be 0ff1 883d c04b 303e
000001e0: 804f 65be 935b c4bd d01b 81be 907f 7c3e
000001f0: 9c81 37be ffde 503e 39de 3f3e 79c6 313e
00000200: f854 3a3e 5f7e 1b3d 4c61 5f3e 7287 663e
00000210: 8f9f a1bd 347b c13d 3d5e 993d 8606 f3bd
00000220: 6236 d73c 7282 3d3e ff6f 813e 3e41 cc3d
00000230: 1680 843d 2866 57be 4692 403e 3f7d 8dbe
00000240: 2fb9 af3c 1faf 03bc 8390 7e3c 8d1a 773e
00000250: 68ac 273e dad4 2abe 1349 e33d fe15 f9bd
00000260: cc78 e8bc 9e27 0dbe 42b4 4f3e d79e 533e
00000270: e678 10be 6ea1 4abe a72c d33d 1e1c 603e
00000280: 429b f53d 4b5a 85bb 9dd1 263e dd8e 6a3c
00000290: 116b 50be 94d4 18bd c47c 6cbd 0275 bcbc
000002a0: 318b 8a3e 457e 633e e7fb 1d3e d3e7 453e
000002b0: 68bc 3d3e b096 6a3e a1b7 b73d 2fb1 49be
000002c0: 51d7 afbd dafd 49be a033 8fbd 4f02 0c37
000002d0: a33f 04bd 35a0 23be dd9e 423e 0a76 443e
000002e0: f526 80be 5be6 593e de2e 9fbd 044e 53be
000002f0: b237 04be ef72 063e 7ee3 8f3d ef0f 383e
00000300: f5da 833e 9e50 88bd e660 403c 15dc e9bd
00000310: 9c9e 60be cd43 50bd 7bf0 06be 055a 2c3e
00000320: 36dd cf3d 6369 ed3c d46b d93d 7bed 17bc
00000330: 8c46 87be 9534 a33d 0618 02bd fabd b5bc
00000340: fa51 1ebe d4c6 16be f7e9 1f3d 3f28 98bd
00000350: 4dc9 c13c 650c ee3d c929 dbbd a226 0abe
00000360: fba2 043e 1ca3 5a3e 90d3 6e3e 9752 20bd
00000370: e857 c1bd 63ae 27be 9563 393d f495 16be
00000380: bce8 753d 7a9e f5bd 19fa babd d0c0 f63d
00000390: 12df 8a3e bef2 70bd eefc 2a3d 9f46 183e
000003a0: f4c1 213d c094 fbbd afb0 3d3b 6b62 4b3e
000003b0: bc12 12be 799e 23be 0425 26bd de88 4d3e
000003c0: 9494 21be faab a13d 49b0 1bbe fbec 1c3e
000003d0: 057c 1f3e cc0c f0bd 9eb8 6b3d faed 0dbd
000003e0: be2d 16be 0be3 38be ca18 18be c24b fbbd
000003f0: 45df 773e 25af 2e3e a242 a7bc 7756 553e
-0.09041223 -0.14981735 0.2520673 0.17304897 0.23786165 -0.176576 -0.11390654 -0.14870307
0.19977319 0.025194483 -0.2037983 -0.095093116 -0.20011912 -0.13020207 0.04900355 -0.02985907
0.12301682 -0.19080915 0.1376817 0.025227262 0.26059425 -0.19822632 0.025237141 -0.23914185
-0.09997269 0.0700896 0.0014181697 -0.22896606 0.21884635 0.14600702 -0.26030502 0.13323075
0.007790155 -0.10703691 -0.2578404 0.121251956 -0.028902449 0.13132055 0.02154329 -0.18467255
-0.076200485 -0.17787316 -0.09593809 0.1892556 0.057346616 -0.20863037 0.19225772 -0.16546129
-0.20866548 0.22222213 -0.072807565 -0.14529486 0.08457912 0.108875535 0.19604643 -0.114121385
0.0077304677 0.122318745 0.011902191 0.20321093 -0.15141915 0.25176966 0.18318447 0.1973095
-0.15623899 -0.17175822 0.21494904 0.07316148 -0.04095301 -0.09138628 -0.13578857 -0.18312483
-0.10594316 -0.14862789 -0.14360178 0.08989544 0.0269928 -0.18609025 0.15816551 -0.10882388
0.037703138 0.12850769 -0.03243688 -0.15680873 0.06393612 -0.15029609 0.11363577 0.020289276
-0.17318156 0.11203364 -0.108946115 0.12407266 -0.041622456 -0.14363268 0.17852123 -0.19694427
0.2324029 0.25796965 -0.22661409 -0.14203845 0.13285962 -0.05708463 0.19491957 0.14192858
0.12060771 0.009779555 -0.11696609 0.1423924 -0.04176544 0.15837337 -0.016748395 -0.073985696
0.23442194 0.04982298 -0.05314077 0.009739855 0.09171914 -0.20790036 0.06686603 0.17216396
-0.22393608 -0.09587779 -0.25216532 0.24658036 -0.17920536 0.20397566 0.18737115 0.17360868
0.18196476 0.037962314 0.2181446 0.22512606 -0.078917615 0.09447327 0.07488678 -0.118664786
0.026271049 0.18506792 0.2528076 0.099733815 0.06469743 -0.21035063 0.18805799 -0.27634618
0.021450607 -0.008037358 0.015537384 0.24131222 0.16374362 -0.16682759 0.11097922 -0.12162398
-0.028377913 -0.13784644 0.20283607 0.20666061 -0.14108619 -0.19788143 0.10311251 0.21885726
0.11992504 -0.0040696017 0.16290899 0.014316288 -0.20353343 -0.037312105 -0.057736173 -0.023005012
0.2705932 0.22216137 0.15428124 0.19326715 0.18528903 0.22909045 0.08970571 -0.19696496
-0.0858599 -0.19725743 -0.069922686 8.345188e-06 -0.03228725 -0.15979083 0.19005914 0.19185653
-0.25029722 0.2127928 -0.07772611 -0.2063523 -0.12911871 0.13129781 0.070258126 0.17974828
0.25752988 -0.066560015 0.011741852 -0.114189304 -0.21935505 -0.05084591 -0.13177674 0.16831215
0.101496145 0.028980916 0.1061627 -0.009272928 -0.2642101 0.079690136 -0.03176119 -0.022185314
-0.15460959 -0.14724284 0.039041486 -0.07429551 0.023655558 0.11623458 -0.10701329 -0.134913
0.12952797 0.21351284 0.23322892 -0.039141264 -0.09440595 -0.16375117 0.045260984 -0.1470564
0.060036406 -0.11993118 -0.091297336 0.12048495 0.27123314 -0.058825247 0.04174512 0.1487069
0.03949161 -0.12284231 0.0028944423 0.19861762 -0.14264959 -0.15978421 -0.040562645 0.20071742
-0.15779334 0.0789413 -0.15203966 0.15324776 0.15574653 -0.11721191 0.05754911 -0.03465078
-0.14665887 -0.1805536 -0.14853206 -0.12270309 0.24206264 0.17059 -0.020417515 0.20833765

model.backbone.encoder.layers.0.self_attn.W_Q.bias f4 [16]
00000000: 1058 2f3e f66e b33d 715b 67be 57ff 38be
00000010: 2510 1b3e 62ce d2bd 942d 963d 752f 4ebc
00000020: cd27 4bbe 8d6b 4f3d 0ac5 9cbd 383d 2bbe
00000030: 9f10 bbbc 83e9 8e3e b84d 13be 99b8 3ebe
0.17123437 0.087613985 -0.22593476 -0.18066154 0.15142877 -0.10293271 0.07332912 -0.012584557
-0.19839402 0.050639678 -0.0765477 -0.16722572 -0.022835074 0.2791253 -0.14385116 -0.18625106

model.backbone.encoder.layers.0.self_attn.W_K.weight f4 [16, 16]
00000000: aad5 633e a7db d1bd 208e 243e e90f 6c3e
00000010: e2c2 c8bb c15b d1bc 9ccd 24be 05c8 48bd
00000020: 5bb0 263e ca69 9f3d 1ef2 d03d 2a9d 83be
00000030: b096 593d b969 c93d ca77 b5bc 9f37 073e
00000040: bcb5 863d 2e30 123e 233c d2bb e825 763e
00000050: 5335 caba 202e 673e 5027 88bc 0076 0dbe
00000060: a287 95bc be78 b2bd c571 1d3e 80b1 77be
00000070: 1aaf 04be 783a 5f3e 7fbd fdbc b371 1a3e
00000080: 6304 8abc 595d 47be 619d 94bd 0e4e 763e
00000090: b764 8e3d 700b ec3b 290e 91bd 5f7e 653d
000000a0: 9986 a4bd 7a2e 943d b081 37be 8134 0f3e
000000b0: 347a 673e 51af 933e 3681 1f3e c35c da3d
000000c0: 9676 373d 5722 bfbd 3e9e 51be a298 c9bd
000000d0: 20b7 d03d 6291 00be d6e1 4e3e 1971 38be
000000e0: 4bc8 47be 4c06 1dbe 12bb c1bd 0653 633d
000000f0: 6877 86bd 64f8 493e e9b0 b13d c3fd a5bd
00000100: 5c9c 0ebe 824c 183d a1f3 0a3c eca6 263c
00000110: 4d52 0abe aeee 2f3e 9da3 3dbe ce78 a33d
00000120: 4ee4 26be 6f51 a63d d027 a53d dd1a 60be
00000130: 2b41 163d 19aa 3ebe f618 09bd 16ed 4cbe
00000140: 9297 b2bd 9f41 ef3d 2b99 70be c8d2 a5bd
00000150: 5b9c 123e 92df cf3d 5ae4 7a3e ff9d 53be
00000160: a3de 04be c811 31be 229e 25be c87f 053e
00000170: a5b7 c5bc 2f72 8abe dd64 6b3e 76cc a73d
00000180: be98 053d d086 013c 7044 7b3e 4a5d 363e
00000190: ea8a 18be caf0 4d3d 2dea a0bd 11d2 e43d
000001a0: 3369 53be 1b2b 723e 32a5 5b3e 9b03 ec3c
000001b0: 77f1 d8bc f3a5 493b a2a3 a13c 3421 00be
000001c0: e5aa 7dbe 8f2c e53d ef66 703e 81b4 66be
000001d0: e7bf 29be f2c6 bd3d 085c 24bc 316b 643e
000001e0: 639b 4bbe 6c64 133e c1e0 363c c73e d9bd
000001f0: 19d9 8a3d abb0 a03d 0a1c 11be 02ac 76bd
00000200: 31a0 14be efea 143e 7b98 233b 81d7 3c3e
00000210: 1c85 263e 4d2f e33d 515b ebbd 7354 36be
00000220: a4c5 103d 4e3f 6cbd fc09 1f3e 595e 323e
00000230: 10f3 39be 7346 bfbd 477f 25be f8e9 173e
00000240: 99c1 4f3e fbc2 1bbe 8546 243e 1103 313e
00000250: adbc 7abc 0e22 99bd c80e 183c 7504 68be
00000260: 51da 0c3e 6632 df3d db65 1e3e d548 bdbd
00000270: a2b0 173e 83e7 48be 2afc 1cbd 6459 bc3d
00000280: d3aa 303e 5359 d3bd 733d 793d 0993 7cbe
00000290: 3d9e 493e 75c9 333e f351 5dbe 5bce 403e
000002a0: 9e94 70bd 4cb1 d93c 26ea 73be 7da2 dfbd
000002b0: 1ae3 fbbd 5c09 76bd 9f4b 493e a458 47bd
000002c0: 5abe 5bbe c3b1 753e d85f 43be eb8a 4e3e
000002d0: bd21 243d bb6f 713e e68f 9dbc 6292 293c
000002e0: 2c2f 82be 6a3d 6cbd e186 69be c46f 7ebe
000002f0: e9b1 6bbc 9c7e b4bc 4994 de3d 5a90 423e
00000300: 74c7 923d 2d0b a4bd f3be f83c a4fa d3bd
00000310: 039a 5dbd 31ff 3a3e d1fd 3d3e 8e33 1bbe
00000320: 327b 80bd c3ee 49be 7ced 5d3e 4c32 cebd
00000330: 2c49 45be 75e9 623e 4f18 663d fdc1 15be
00000340: 91ca 4e3d b8a7 0abe dbd6 e23d bf50 f13d
00000350: a365 16bd a990 f53d 1ad8 80be fac1 693e
00000360: 2974 df3c 7d7a 193d 2e70 06bd 4c16 393e
00000370: ae99 06bd 6367 ffbd f84e 063c 8a18 e33c
00000380: 030b 993d 7656 f2bd e846 cc3d ae46 c43d
00000390: 56be 40be 661a 443e 7d33 833e 5c55 91bd
000003a0: da19 4d3e 932c 98bd 798e 6a3d bc60 a53b
000003b0: 34de fabd f42e 133d 2538 363e 6d16 f73d
000003c0: dc2d 02bc 946a a73d 4855 7e3d 2f85 a7bc
000003d0: 0c08 85bc 3aee 613c b985 2ebe 282b 3cbe
000003e0: c308 97bd 328b 98bd 269a 353e cca7 5e3e
000003f0: 1525 5e3e 2acd 853d 6cdd 273e 3328 3d3e
0.22249475 -0.102469735 0.16069841 0.23052944 -0.0061267475 -0.025556447 -0.16094059 -0.04901888
0.16278212 0.077838495 0.1020243 -0.25705844 0.053122222 0.09834618 -0.022151846 0.13204812
0.06577632 0.14276192 -0.0064158603 0.24037898 -0.0015427269 0.22576189 -0.016620308 -0.13814545
-0.018253151 -0.08714436 0.15375431 -0.24188805 -0.12957421 0.21799648 -0.030974148 0.15082435
-0.016847795 -0.19469203 -0.0725658 0.24053213 0.069528036 0.007203512 -0.07082779 0.05602872
-0.08033485 0.07235427 -0.17920566 0.13984872 0.2260521 0.28844693 0.15576634 0.10662224
0.044790827 -0.09332722 -0.20470521 -0.098435655 0.10191178 -0.12555459 0.20203337 -0.18011893
-0.1951 -0.15334433 -0.09459509 0.0554991 -0.06565744 0.1972366 0.08676321 -0.08105042
-0.13926834 0.03718234 0.008480937 0.010171633 -0.13507958 0.17180893 -0.18519445 0.07982026
-0.16298029 0.08121001 0.08064234 -0.21885248 0.036683243 -0.18619575 -0.03347107 -0.20012316
-0.08720316 0.11682438 -0.23495929 -0.08096844 0.14317457 0.101500645 0.24501172 -0.2066574
-0.12975554 -0.1729194 -0.16173604 0.13037026 -0.02413542 -0.2704024 0.22987695 0.08193295
0.03261637 0.007905677 0.24537826 0.17809024 -0.14896742 0.050278462 -0.078571655 0.111728795
-0.20645599 0.23649256 0.21449736 0.028810313 -0.026482327 0.003076908 0.019731347 -0.12512666
-0.24772222 0.111901395 0.23476766 -0.22529794 -0.16577111 0.092664614 -0.010031708 0.22306515
-0.19883494 0.14393777 0.011161984 -0.10607677 0.06779689 0.07846197 -0.14170852 -0.060222633
-0.14514233 0.14542745 0.0024962712 0.18441583 0.16261715 0.11093006 -0.114920266 -0.17805652
0.035344735 -0.05767756 0.15531152 0.17418803 -0.18159127 -0.09339609 -0.16161834 0.14835346
0.20288695 -0.15211098 0.16042526 0.17286326 -0.015303773 -0.074771985 0.009280868 -0.2265795
0.13755156 0.108982846 0.15468542 -0.09242407 0.14813474 -0.19619565 -0.03832642 0.091967374
0.17252664 -0.103197716 0.06084962 -0.24665464 0.1968927 0.17557319 -0.21613292 0.18828718
-0.058735482 0.0265738 -0.2381979 -0.10919664 -0.122991756 -0.06006752 0.19657753 -0.04866852
-0.21459332 0.23993592 -0.1907953 0.2017018 0.040071238 0.23577778 -0.019233655 0.010349842
-0.25426614 -0.057675757 -0.22805358 -0.24847323 -0.014385679 -0.022033028 0.10868127 0.19000378
0.07166949 -0.08009944 0.03036449 -0.1035054 -0.054101955 0.1826141 0.18553855 -0.15156385
-0.06273498 -0.19719987 0.21672624 -0.10068187 -0.19266194 0.2215937 0.056175526 -0.14624782
0.05048615 -0.13540542 0.11076137 0.11782979 -0.036718022 0.11990482 -0.25164872 0.22827902
0.02727707 0.03747033 -0.032821827 0.18074912 -0.032861404 -0.12470891 0.008197539 0.027721662
0.074728034 -0.11832897 0.09974462 0.095837936 -0.18822607 0.19150695 0.2562522 -0.07096359
0.20029393 -0.07430377 0.05726478 0.005046932 -0.12249413 0.03593345 0.17794855 0.12064824
-0.007945504 0.08174625 0.06209305 -0.02044925 -0.016239189 0.013789708 -0.17043199 -0.18375838
-0.07374718 -0.074484244 0.17734584 0.21743697 0.21693833 0.065332726 0.1639306 0.18472366

model.backbone.encoder.layers.0.self_attn.W_K.bias f4 [16]
00000000: c232 debd b7ec 65be 3a9d cfbd 2f29 3e3e
00000010: 0bf9 3bbe 6b75 b83c d3b0 cb3d 49bd 24be
00000020: 8fa0 afbd b9d4 71be 3eca 6b3e ccd6 143e
00000030: d260 6dbe c2d3 263e c4cc f23c bee6 a4bd
-0.10849525 -0.22453581 -0.101374105 0.18570398 -0.18356721 0.022516927 0.09945836 -0.16087832
-0.08575546 -0.23616304 0.23026368 0.14535064 -0.23181465 0.16291717 0.029638655 -0.08051823

model.backbone.encoder.layers.0.self_attn.W_V.weight f4 [16, 16]
00000000: 4e75 06be f787 7a3d 1382 12bd e22e d43c
00000010: 9116 853e 0019 6cbe b977 303e 73bc 42be
00000020: 604a 9b3d 1629 093e 51c7 debd b5ab 91bd
00000030: e8b3 5f3e 6ff7 493e 6fa6 cebd fe6d e4bd
00000040: 35d7 79be 9484 613e 2fc9 8fbd 0bef 643c
00000050: de6d 2ebc 61f1 e93c ad5b 2a3e d49f c7bd
00000060: f811 643e c6c5 e7bd f63e 2f3e 7471 373e
00000070: e765 3e3e ce9f 863d e69d f0bd 2ad8 ac3d
00000080: f112 f73c 7e60 5c3e 41de 683e 1ecd 5ebd
00000090: cd11 20be 5f17 dcbd 7b63 2fbe 11ac 95be
000000a0: 00d1 013e fc56 a3bd e7a5 2fbe 316d 38be
000000b0: f5d4 80bd 5071 41be aa7e c53d fab6 c13d
000000c0: 6df5 3bbe 0b07 64be 93be 54be 4f6f 46bd
000000d0: 2efe 163e d87b 183d 408f debc fff7 b8bd
000000e0: c082 afbd 1519 9e3c d22c cebd 49fe 4d3e
000000f0: ba54 4d3e f3af 3f3d 390f 743e db73 683e
00000100: c905 2b3e efa4 83be 97b9 d1bd 6819 423e
00000110: d162 edbd fee1 1cba 8d0a 3dbe c719 30be
00000120: 6068 873e 4907 853e 7d7d 0c3e e3d9 4b3e
00000130: 0070 ecbd 2198 2c3e 352f 3fbd b3f4 b33b
00000140: 43fd ed3d bb5d 51be 88a8 07be f880 473c
00000150: 0a56 193e 9950 43be 0142 28be 3b46 11be
00000160: e8e7 1dbe abc6 72be 67a2 943d 7ffd 263e
00000170: 9dce 343e 922d b9bd c5b9 1cbe 6690 3c3e
00000180: e00c bd3d 47e5 c03d 9e8a 0f3e 1dc4 0bbd
00000190: 5819 c2bc 5639 37bd a668 263e 8396 563e
000001a0: d847 5bbe 35de 0dbe 7d4d b23c c83c 86be
000001b0: 220f 44be ce8f 8bbc 5fb4 8e3d 02e1 1fbe
000001c0: ff78 fdbd d148 71be 4066 943d 7d11 c7bb
000001d0: 1986 18be db02 f53d 145f 623e 2f08 34bd
000001e0: 6e76 2fbc 62be b9bd 4b15 143e 054c 4c3c
000001f0: d5a3 21bd 75b3 e1bd 83c2 6e3d 4398 acbd
00000200: 191b 57be d1f7 223e 25ce 26be ece0 283e
00000210: 8c54 363e 9d05 4a3e 24cd ff3d b20d f6bc
00000220: deda 65be 1520 6b3d 2e29 7abe 4f87 21bc
00000230: 125d 683e f555 193e 2ad0 48be a6da 69bc
00000240: 53fc 5abc c18f 8f3d dc19 57be a200 73bd
00000250: 0c32 80bd 338b 333b b17b e33d 761d 253e
00000260: 52ff 7c3c 176f 2bbd 61ee 07be c057 c73d
00000270: a87e 6ebe cd98 c83b 0cca 373d 8ccf 3ebe
00000280: e1de b63c 2ed8 cfbc b156 e43d c495 5d3e
00000290: 9868 133e 9e24 93be b372 733d 511a 00be
000002a0: a804 be3d 935a 53be 3581 6e3d f9f9 263c
000002b0: df75 1f3e 87fe 3abe 0a71 61be dec4 8cbe
000002c0: 7ae2 18be e910 f43d 4c8a 8ebc fa87 37bd
000002d0: 68ed 66be 1c98 c93d ab5a 833d 8190 47bd
000002e0: 1810 7e3e ffe5 09be 7186 8d3d 6ddc de3c
000002f0: c173 7a3e 0728 a1bb 43e8 f93d e094 3b3d
00000300: e9ee a93d 4ba0 b83d 5f2c 553d 3895 7cbd
00000310: 258f 403e ffd5 44be eccc 1c3e decd 86be
00000320: 04d1 2bbe 0a21 7bbc 473a d1bc 1ae7 a13d
00000330: 1637 f5bd 0f55 1fbe 76af 5dbe d82b 41be
00000340: ae50 1cbe 5f5a d8bd 70f7 ae3d f87e b23d
00000350: b3c1 5cbe 0be4 a1bd 0e58 1fbe 4d30 3abe
00000360: ba44 25be 7b01 35bd 7a57 9f3d 20e9 863e
00000370: c18b 47be 1e2b 8d3d 17ed e6bc 9ee3 df3d
00000380: 3a15 133e 5ef1 013e df2b 3e3e 89f3 e7bb
00000390: 150d ffbd d821 0dbe 82ab 593e e97b 553d
000003a0: c19c 7e3e a405 46be 3e59 aabd 8b9f 4c3e
000003b0: 46c9 853e 8175 853e 8cf1 d1bd 76a6 c63d
000003c0: b634 3dbe 8090 47be 9b2e 2f3c 40be cb3d
000003d0: 1a3e 3f3e 7261 0ebe 03a6 623e a087 38be
000003e0: dadc 3f3d c478 4c3e 5472 4b3d bb60 7e3d
000003f0: 404c 51bd 1148 e3bc bbc1 ec3d 2342 8e3e
-0.13130686 0.061164822 -0.03576858 0.025901262 0.2599378 -0.23056412 0.1723317 -0.190172
0.07582545 0.1339458 -0.1087786 -0.07112829 0.21845973 0.19723295 -0.100903384 -0.11153792
-0.24398501 0.22023231 -0.070207946 0.013973008 -0.010646312 0.028557481 0.16636534 -0.09747282
0.2227248 -0.11317019 0.17113861 0.17914373 0.1859356 0.06573449 -0.11748867 0.084396675
0.0301604 0.21521184 0.22741033 -0.054394834 -0.1563179 -0.10746645 -0.17127793 -0.2923284
0.12677383 -0.07975575 -0.1715313 -0.18010403 -0.06290618 -0.18890882 0.096433 0.09458728
-0.18355341 -0.22268312 -0.20775823 -0.048445996 0.147454 0.03722748 -0.027167916 -0.090316765
-0.085698605 0.01929907 -0.100671425 0.20116533 0.20051852 0.046798658 0.23833932 0.22700445
0.16701426 -0.25711772 -0.102404766 0.18955004 -0.11591113 -0.0005984603 -0.18461056 -0.17197333
0.2644682 0.2598212 0.13719745 0.19907336 -0.115448 0.16854908 -0.04667588 0.005491817
0.116205715 -0.20445912 -0.13247883 0.012176745 0.14974228 -0.19073714 -0.16431428 -0.14186947
-0.15420496 -0.23708598 0.07257538 0.16307639 0.17656942 -0.09041895 -0.1530524 0.18414459
0.09230971 0.09418731 0.14017722 -0.034122575 -0.023693725 -0.044732414 0.16250858 0.20955853
-0.21414125 -0.13854297 0.021765465 -0.26218247 -0.19146398 -0.017036345 0.06967997 -0.15613177
-0.12376594 -0.23562934 0.07246065 -0.006075083 -0.14894904 0.11963435 0.22106582 -0.043953117
-0.010709388 -0.09069516 0.14461248 0.012469296 -0.039462883 -0.11020557 0.05829097 -0.08427479
-0.2100643 0.15914847 -0.16289575 0.16492051 0.1780569 0.19728704 0.12490299 -0.030035827
-0.22446772 0.057403643 -0.24429771 -0.00985892 0.22691754 0.14974196 -0.19610658 -0.014273321
-0.013365823 0.07009841 -0.21005958 -0.059326775 -0.06259546 0.0027396202 0.11107577 0.1612452
0.0154417325 -0.04185399 -0.13274528 0.09733534 -0.23290503 0.006121731 0.04487042 -0.1863386
0.022323074 -0.025371637 0.111493476 0.21639162 0.14395368 -0.28738874 0.059435558 -0.12510039
0.09278232 -0.2064002 0.05822869 0.010191434 0.15572308 -0.18261157 -0.22015777 -0.27493948
-0.14930144 0.11917288 -0.01739993 -0.04480741 -0.22551501 0.09843466 0.06413778 -0.048721794
0.24810827 -0.13466643 0.06910408 0.027204717 0.24458219 -0.0049181017 0.122025035 0.045796275
0.082975216 0.090149485 0.05204427 -0.061665744 0.18804605 -0.19222258 0.15312546 -0.2632894
-0.16778952 -0.015327701 -0.025540484 0.07905407 -0.119733974 -0.15559791 -0.21648964 -0.18864381
-0.15265152 -0.10564112 0.08543289 0.087156236 -0.21558265 -0.07904824 -0.15560934 -0.18182488
-0.16139498 -0.044190865 0.07780357 0.26349735 -0.19486906 0.068929896 -0.028189225 0.109320864
0.14363566 0.1268973 0.18571423 -0.007078592 -0.12453667 -0.13782442 0.21256831 0.052120123
0.24864484 -0.19338089 -0.08317803 0.19982736 0.26130122 0.2606621 -0.102511495 0.09699719
-0.18477139 -0.19488716 0.010692264 0.09948397 0.18676034 -0.1390436 0.22133641 -0.18020487
0.04684148 0.19967943 0.04966958 0.062103968 -0.05109811 -0.027744325 0.11560389 0.27784833

model.backbone.encoder.layers.0.self_attn.W_V.bias f4 [16]
00000000: 095c 423e fccc 33be a70b e23d b8c3 87be
00000010: 778b 35be 7f27 27be 41c7 8d3c 1543 1c3e
00000020: c61f e03d 03dc 213c adf1 fabd 7725 1abd
00000030: c5d0 5bbc c324 86be 9005 2c3e da08 113e
0.18980421 -0.17558664 0.11037379 -0.2651651 -0.17728983 -0.1632366 0.017306926 0.15259965
0.1094356 0.009879115 -0.12253127 -0.037633386 -0.013416474 -0.26199922 0.16798997 0.14163533

model.backbone.encoder.layers.0.self_attn.to_out.0.weight f4 [16, 16]
00000000: b034 80be c28b 97bd 18be 76be 6045 d0bd
00000010: 1a29 14bd 64cd 6ebe a63d 61be 059d 9dbd
00000020: a07b f1bd 3527 f3bd ace5 95bd 8183 553e
00000030: 1ca0 40be 3691 563e c3de 143e f3bf 603e
00000040: 9b4d 6c3e 8fe7 1abd 8759 62be 34d0 febd
00000050: 6b39 2ebe 95f7 debd 3989 0f3c b2b7 54be
00000060: 1099 16be e08d 80be 7c6c 453e 13bd 1ebe
00000070: e7e7 9fbd 0985 9e3d 9e3f 7a3c 2032 38be
00000080: d667 143e 45c5 333e 4062 aa3d 188c 873d
00000090: 85bb 4c3e a147 d7bd 8d56 4c3e 72ca e63c
000000a0: e09a ca3c 1e23 d8bd 4ee2 80bd 9b4e 00be
000000b0: abca 0ebd 74b8 4b3e 7cad 4ebd 3a54 043e
000000c0: a15f 0bbe 3501 41be cb27 be3d b4bc 62be
000000d0: 65ca 03bb 10d1 b03d 435a a93d b468 86bc
000000e0: 276f 23be a5ed 9dbd d954 003d 63ac 6e3d
000000f0: bce5 19be d281 5dbc c89f d33d e795 8a3d
00000100: 0948 19be 0cd5 a03c 1890 60bd 56f4 2abd
00000110: 0576 2c3e 03c4 4f3e 87eb 6dbe 12bd c4bc
00000120: fbd7 60be 03b5 e63d 0794 983b cbee a63d
00000130: 7071 52be 7795 3a3e b5b4 6a3e 2917 75bd
00000140: e85d 643e 86d6 82bd b464 403e 8612 6d3e
00000150: d1d7 723e 5352 453c 11a8 b7bd 7041 b93d
00000160: 10ff 643e f75a 103e 64cc 0bbe 4dd3 013e
00000170: a9e2 bcbc 12d4 5f3e a74e 833d 1500 553e
00000180: 6078 07be 7a5a 25bd ba72 17be 0b58 17be
00000190: 0171 29bd a01a 713e 86d9 54bc a318 1fbd
000001a0: 6549 7e3e bd4f 34be 8b4e 1cbe 01f9 f13d
000001b0: e884 a73d 95d5 02be ada2 9b3d 6f7f 0ebc
000001c0: 714d 2f3e 90a0 1d3c 6221 073e 45e7 0b3d
000001d0: 3663 923e 3572 60bd eb15 d3bd b27a 8a3d
000001e0: 39cb bcbd 41a4 a83d 24e3 67be 160e 403e
000001f0: 3548 85bd 8185 91bd f942 273e 409a 293e
00000200: 58cc 76be 4b89 1ebe 1bdf 293e 0559 333d
00000210: 68a4 93be 3f10 383e d304 783d 3555 98bd
00000220: 0a0f 0d3e 2f36 8fbd 5f35 993c 3188 15be
00000230: 366e a03c 7d4e 3abd e0ab 7cbe 6b08 a43d
00000240: 2549 8d3e 8a8d 7cbd d1c8 1c3e 7e3f 4d3e
00000250: 6e6b 4e3e 01e9 193e 9961 e7bd f7b4 61be
00000260: bf10 a83d f8bd 7fbe 5c72 03be 790c 343e
00000270: 50d1 19be 7128 36bd b6b1 c8bd b030 a23a
00000280: ce7c 51be d7cd 93bd d1a1 5dbd 6008 12be
00000290: 32ea d8bc 7753 44bd e9cc 75bc 8a56 01bd
000002a0: 149d 9cbd 230b 703e 04a8 4b3e d141 6dbc
000002b0: f4da 8d3d 4281 ea3c 9838 df3d a565 7bbe
000002c0: 2982 8bbe 85e5 63bd f508 51be 7456 033e
000002d0: be76 693e 3147 e5bd 90eb 0f3e 65fb 5cbd
000002e0: 117e 59be f4f8 b0bd 8675 243e f33a 18be
000002f0: 8e7e c53b fdf5 febd 6321 6c3e 4f84 283e
00000300: e064 12bd cc9f 50be aaa8 d53d 3d7a 29be
00000310: 0d9b 313e af2c c4bd 3172 80bd db4a 36be
00000320: 6747 5b3d 0ea5 ef3c ace3 b3bb 2687 82be
00000330: 416c acbd 9319 953d 26cc 55bd c6d9 5e3e
00000340: 88aa a53d 216b 6c3e 400b 4a3e 3c80 5a3d
00000350: 0cbe c4bc 95df 6fbe 9b83 b83c 899d aabd
00000360: ce06 023e 6138 90bd f657 47be 0a4b 1ebd
00000370: 24cf 4bbe d979 0abe 3016 87bd e6e0 a4bc
00000380: 24e8 4bbd 74c7 7d3e e866 d0bd 184b a73d
00000390: d817 483e 7ca4 d8bd 7ea3 8f3d 5cb6 adbc
000003a0: 66b5 5d3d e321 96bd 317b a93b 372c 233e
000003b0: a4c2 513e ecd3 353e 37ae 213e 5eb5 513e
000003c0: 599e 08bd 3128 3bbe e068 6cbe dd5b 813e
000003d0: 74a6 6fbd 1055 25bd 6086 febd fa98 0e3e
000003e0: 06a7 febd 9b45 873e 421c cebd 5c8b 21be
000003f0: f305 4e3e 4b14 853e 5fff 36be 554e 82bd
-0.25040197 -0.073997036 -0.24095953 -0.10169482 -0.03617201 -0.23320538 -0.21996173 -0.07695965
-0.11791158 -0.118727125 -0.07319197 0.20850946 -0.18811077 0.20953831 0.14538102 0.21948223
0.23076479 -0.037818488 -0.22104464 -0.12442055 -0.1701409 -0.10887066 0.008760744 -0.20773199
-0.14706826 -0.25108242 0.19279665 -0.15501814 -0.07807904 0.07740218 0.015273957 -0.17987871
0.14492735 0.17555721 0.08319521 0.06618518 0.19993408 -0.10511709 0.19954892 0.028172705
0.024732053 -0.10553573 -0.06293164 -0.12529986 -0.034861248 0.19894582 -0.050458416 0.12922755
-0.13610698 -0.18848117 0.09284934 -0.22142297 -0.002010965 0.086336255 0.08269169 -0.016407348
-0.1596037 -0.07711343 0.031330917 0.05826987 -0.15029043 -0.013519721 0.1033321 0.06766873
-0.14968885 0.019632839 -0.05482492 -0.041736923 0.16841896 0.20289616 -0.23234378 -0.024015937
-0.2195739 0.11264994 0.004656318 0.08151015 -0.20551085 0.18221079 0.22920497 -0.05983654
0.22301447 -0.06388573 0.18788415 0.23151597 0.2371514 0.012043553 -0.08967603 0.09045684
0.22362924 0.140972 -0.13652188 0.12678261 -0.023057299 0.21858242 0.06411486 0.20800813
-0.13229513 -0.04036949 -0.14789858 -0.1477968 -0.041367535 0.23545313 -0.012991315 -0.038841855
0.24832685 -0.17608543 -0.15264337 0.11815072 0.08179647 -0.12776788 0.07599387 -0.008697375
0.17119385 0.009620801 0.13196328 0.034156103 0.28591317 -0.054796416 -0.10306915 0.067616835
-0.09218449 0.08234454 -0.22645241 0.18755373 -0.06507913 -0.07105542 0.16334142 0.16562748
-0.24101388 -0.1548206 0.16589014 0.043786068 -0.2883637 0.17974947 0.060551476 -0.07438127
0.13775268 -0.069927566 0.018702207 -0.14602734 0.019583803 -0.04548501 -0.2467494 0.08009418
0.27594867 -0.06165842 0.1531098 0.20043752 0.20158169 0.1503029 -0.11297912 -0.22041689
0.08206319 -0.24974811 -0.12836593 0.17582883 -0.15021253 -0.04447216 -0.09799521 0.0012374129
-0.20457765 -0.07216995 -0.0541094 -0.14261007 -0.02647886 -0.04793116 -0.015002468 -0.03157667
-0.07647148 0.23441748 0.19888312 -0.014481024 0.069265276 0.028626088 0.10899466 -0.24550493
-0.27247742 -0.05563881 -0.20413573 0.12825948 0.22799203 -0.11195219 0.14054704 -0.053950686
-0.21239497 -0.08641234 0.16060457 -0.14866237 0.0060270494 -0.12449262 0.23059611 0.16456722
-0.035740733 -0.20373458 0.10432561 -0.16550536 0.17344303 -0.09578835 -0.0627178 -0.17801993
0.05353489 0.029253509 -0.005489787 -0.25493735 -0.08419085 0.072802685 -0.052196644 0.21762761
0.08089167 0.23087741 0.19730854 0.05334495 -0.024016403 -0.23425134 0.022523692 -0.08330829
0.12697908 -0.070420034 -0.19467148 -0.03864578 -0.19903237 -0.13523044 -0.06596029 -0.020126771
-0.049781933 0.24783117 -0.10175878 0.0816862 0.19540346 -0.10578248 0.070136055 -0.02120512
0.054128073 -0.07330682 0.0051721563 0.15934835 0.20484406 0.17756623 0.15789114 0.20479342
-0.033354137 -0.1827705 -0.23086882 0.252654 -0.05850835 -0.040364325 -0.12427974 0.13925543
-0.12434201 0.26420292 -0.100639835 -0.15775818 0.20119457 0.25992045 -0.17870854 -0.06362597

model.backbone.encoder.layers.0.self_attn.to_out.0.bias f4 [16]
00000000: 58c2 0b3e b2ef 73bd 5b55 503d 5b47 3bbe
00000010: 4c60 523e 86c4 dc3d f202 1f3e ae89 9f3d
00000020: 705a 2cbe cf06 a93d 3757 703d 358a 1a3e
00000030: 460f 31be 88d0 8dbb 8be7 3f3e 823e 3f3e
0.13648355 -0.059554763 0.05086265 -0.18288939 0.20544547 0.10779671 0.15528467 0.07789932
-0.16831374 0.08253252 0.058676925 0.15091784 -0.17290983 -0.0043278374 0.1874067 0.18676189

model.backbone.encoder.layers.0.norm_attn.1.weight f4 [16]
00000000: a3d2 803f 7de3 803f 9062 7d3f 4bd1 7c3f
00000010: b727 823f b3f8 7b3f 8939 7d3f 1bcd 7f3f
00000020: f677 7b3f 531d 813f ab92 803f e9aa 7c3f
00000030: 5d1c 753f ce99 7b3f e4f2 823f 8c24 833f
1.0064281 1.0069424 0.9897852 0.98756856 1.016837 0.9842636 0.98915917 0.9992234
0.9822992 1.0087074 1.004476 0.9869829 0.95746404 0.9828156 1.0230374 1.0245528

model.backbone.encoder.layers.0.norm_attn.1.bias f4 [16]
00000000: fd03 c7bc c7c6 11bc efd9 9f3c dc55 313b
00000010: b97b 8f3b e499 babc 1119 a1bc 70cb 99bc
00000020: af40 0cbc 6cc6 2d3c dd99 363a d2f0 b43c
00000030: eb7e fbbb d8e1 0bbc c115 26bc b6d6 b23a
-0.024293894 -0.00889749 0.019513099 0.0027059233 0.0043787626 -0.022778459 -0.019665273 -0.018773764
-0.008560344 0.0106063895 0.00069656764 0.022087488 -0.007675042 -0.008537732 -0.0101370225 0.0013644311

model.backbone.encoder.layers.0.norm_attn.1.running_mean f4 [16]
00000000: c5bb 7fbc 66a5 b03c 21dd 57bd 86b5 9fbc
00000010: 9f10 123e 5d4c ebbd 7bf8 d4bc 6a9d a93b
00000020: 789a 27be 35fd 88bd a939 163e e591 12be
00000030: 5366 30be 7c38 29be c689 bcbc 722d f93b
-0.015608733 0.021563243 -0.05270112 -0.019495737 0.14264153 -0.114891745 -0.025997391 0.005176236
-0.16367519 -0.066889204 0.14670433 -0.14313467 -0.17226534 -0.16525453 -0.023014914 0.0076042945

model.backbone.encoder.layers.0.norm_attn.1.running_var f4 [16]
00000000: b362 6e3f 5466 c73e f241 793f d06d 1c3f
00000010: 42cc 2f3f 359e 133f a51b 2d3f 884c da3f
00000020: 8922 5a3e 7ad3 6c3f bf36 333f 2f8b 573f
00000030: 369a 053f 14f3 123f 146a 4a3f 57dd ee3e
0.93119353 0.38945258 0.9736625 0.6110506 0.6867105 0.5766328 0.6762031 1.7054605
0.21302237 0.9251019 0.7000541 0.8419675 0.5218843 0.5740216 0.7906811 0.46653244

model.backbone.encoder.layers.0.ff.0.weight f4 [128, 16]
00000000: 0c9d 113e ada9 c03d d8e2 3cbd 60a1 5a3e
00000010: 4f6a 73bd ce35 693e 1a99 6b3d 655c d5bb
00000020: aae0 363e a5e3 143e 6df3 db3d 060f 553e
00000030: c1b7 eebd 7c08 0d3e 301e 373e 2e51 2f3e
00000040: c7e3 5dbe 9265 b23d 08c4 313e 2329 e1bd
00000050: fa28 b2bc 5794 96bd 15c9 1a3d 84e9 29be
00000060: a451 e5bc 8bc6 db3d e460 263e f702 32be
00000070: be6f a03d 0661 2f3e 827b e53d 94a6 4a3e
00000080: 91de 42be 6f70 793e fc16 4fbe 0ff6 39be
00000090: a3be 723e 0c8d 16be 301c c83c 40a4 15bd
000000a0: c623 4e3d 84b7 82bd 71f4 1f3c f01a 423d
000000b0: 3bf4 543d a1e2 46bd aba7 62be 0403 283e
000000c0: d9fb 4dbd 2fb2 133e f969 1cbe b121 67be
000000d0: 0265 bcbd 007c 5b3e be81 0b3e 0c29 cd3d
000000e0: 1c95 d23d 75ba 43be 9fc4 a23c 2ae6 473c
000000f0: 4c5c 193e 3b1c f2bd 85bc 5a3e 551f a03c
00000100: 7079 5a3e b16f 953c a307 5fbe 5bcd 093e
00000110: fb3a fcbc 43fe fb3d e616 343e 30f6 89bc
00000120: 1993 67be 5915 8e3d dcb2 973d 03d4 04be
00000130: 332b 793e 23ca 72be c071 303e 27a3 78bc
00000140: 8ace 35bb 6bb6 31be fcd8 763e c59d 183e
00000150: 5bcd 053e 609e 32be 192a ddbd 88a7 b33c
00000160: 04ad bdbc de16 9ebd 5ca1 01be 7583 38be
00000170: 1be5 ee3d f052 453e 8ba1 d3bd 4d22 b33d
00000180: ea1e 9cbd 75bb 38be 0e74 44bd b4ba e03c
00000190: a30a f8bd a421 45be bcd4 783d 9a07 febd
000001a0: e3f6 babd 5299 413e e36d 60be 5c00 66bc
000001b0: 1d5f 50be 6a75 80bc 6b60 42be 33c0 443d
000001c0: 1781 d83d 791f e03d 497a 843c 89e8 5dbd
000001d0: 5847 83be 8f5c 1f3e 1bf6 ad3d 3c15 20be
000001e0: 0fe7 66ba d531 6abe d3a8 68bc 53f7 16be
000001f0: adce 403e 1427 ed3d fe2c e4bd daec b8bd
00000200: 7d89 41bd ff89 f53d be98 dbbd 4d4f 9f3d
00000210: aa40 803d 3539 ab3d dadb eabd cea5 19be
00000220: 7dd0 563e 174a adbc 0f9d 0dbd e573 f4bd
00000230: 842e d73d db8e d4bd 7a78 0f3e ad70 003e
00000240: 8220 8d3d 2620 3a3e 8e63 213d 24c6 11be
00000250: 33fc 4abe e271 c13d 202a 4fbe a0ac 993d
00000260: 548e 1abe d3a3 04be 1bae 593e 7d7e 5fbe
00000270: 4324 ebbb 5ec6 a2bd 7ab0 98bd 0887 d23c
00000280: e0ba d4bd 6e1a 4a3e d11e 723d 87f1 7f3e
00000290: a84a 123e b9ba 9a3d 1c98 ca3d 7628 e03c
000002a0: ad4f 273e 7dac 2dbe 4f7a 3cbe 5ca0 083e
000002b0: 67f4 01be a685 79be 9427 80bd cf54 2e3e
000002c0: 9bd0 bbbd 964c d23c b1e2 403e 8143 3bbe
000002d0: 850e 223e 47a7 6f3e 95e5 403e c065 473e
000002e0: 6b34 47bc d306 bd3d c326 e2bd a76c 9dba
000002f0: 153e 393d 6b06 72be 94aa 4bbe abb5 c33d
00000300: 84e3 5b3e c0c5 4f3e b10b 18be c6d9 1b3e
00000310: 9054 4f3e 94d4 153e bf2a cfbc d183 383d
00000320: fcdc 273e 5bc9 423d 7130 babd 2a3c 103d
00000330: d3fe 823e 9c12 a3bc 0161 06be ab56 de3d
00000340: 1360 253e d9c2 5dbe 7b48 bf3d 5435 db3d
00000350: f529 4b3d 1565 153e d982 933b f594 813e
00000360: 166e 423e 611e 01be 0999 62be fb41 97bb
00000370: 8297 a9bd 4bb6 333e 014a 31be 9f64 463e
00000380: 0f56 4abe dfbd 693e 096d 69be 3b64 af3d
00000390: 5117 eebd 56a1 313d 5b76 373e 5bca b6bc
000003a0: a2ca d839 dd50 d8bd 75f6 52be 5a5e 313e
000003b0: 3625 683e b52f 1ebc bc59 4fbe 671d 94bd
000003c0: a84e 353e 5e6d c2bd d3d7 b2bd d618 963d
000003d0: 0d94 3e3e 2e96 243c 612a 0f3e 6aa9 febd
000003e0: 05f1 0abe 7a2f 08be 312c 60bd a7ac bb3b
000003f0: 3328 5abe cb59 6ebe c418 653e faa6 89bd
0.14220065 0.09407363 -0.046114773 0.21350622 -0.059427556 0.22774431 0.057519056 -0.0065112584
0.1785914 0.14539964 0.10739789 0.20806512 -0.11656142 0.13772768 0.1788261 0.17120811
-0.21668921 0.08710779 0.17359936 -0.10994174 -0.021748055 -0.07352512 0.037789423 -0.16592985
-0.02799303 0.107312284 0.16247898 -0.17383943 0.07833813 0.17126855 0.11205198 0.19790107
-0.19030215 0.24359296 -0.20223612 -0.1816027 0.23705535 -0.14702243 0.024427503 -0.036533594
0.050327085 -0.06382659 0.009762869 0.04738897 0.05199073 -0.048555974 -0.22134273 0.164074
-0.05028901 0.1442344 -0.152748 -0.22571446 -0.09198953 0.21434021 0.13623711 0.10017595
0.102823466 -0.19114096 0.019869147 0.0122008715 0.14976615 -0.11821791 0.21360977 0.01954619
0.21335387 0.018241735 -0.21780257 0.13457243 -0.030789843 0.12304356 0.1758686 -0.016841024
-0.22614707 0.069376655 0.074071616 -0.12971501 0.24332885 -0.23709922 0.17230892 -0.015175617
-0.0027741515 -0.17354743 0.2410621 0.14903934 0.13066618 -0.17443228 -0.10799045 0.021930471
-0.02315379 -0.07719205 -0.1265921 -0.18018897 0.11664792 0.1926992 -0.10333546 0.08746777
-0.07623084 -0.18040259 -0.04796224 0.027432777 -0.12111404 -0.19251114 0.060749754 -0.12403794
-0.09129121 0.18906143 -0.21916918 -0.014038172 -0.20348783 -0.015680987 -0.18982093 0.048034858
0.10571497 0.10943503 0.016171591 -0.05417684 -0.25640368 0.15562652 0.084942065 -0.156331
-0.0008808234 -0.22870572 -0.014200407 -0.14742784 0.1882884 0.11579719 -0.11141394 -0.09029551
-0.04725026 0.11989211 -0.10722493 0.07778797 0.06262334 0.08360521 -0.114677146 -0.15004656
0.2097797 -0.021153493 -0.03457361 -0.11936168 0.10506919 -0.1037881 0.14010802 0.12542982
0.06890966 0.18176326 0.039401583 -0.14235741 -0.19822769 0.094455495 -0.20230913 0.07503629
-0.15093356 -0.12953119 0.21257822 -0.21825595 -0.0071759536 -0.07947992 -0.07455535 0.025699154
-0.10387206 0.19736645 0.05911142 0.24994479 0.14286292 0.07555146 0.09892294 0.027363043
0.16338988 -0.1696033 -0.18406032 0.13342422 -0.12690888 -0.24367389 -0.06257549 0.1702454
-0.09170648 0.025671285 0.18836476 -0.1828747 0.15825851 0.23403655 0.18837579 0.19472408
-0.0121584935 0.09229817 -0.110425495 -0.001201053 0.04522522 -0.23635261 -0.19889289 0.09556135
0.21473509 0.2029028 -0.1484821 0.15219793 0.20247102 0.14631873 -0.025288938 0.045047585
0.16392893 0.04755531 -0.09091271 0.035213627 0.2558504 -0.019906335 -0.13122942 0.10856374
0.1614993 -0.2165636 0.093399964 0.10703531 0.04960056 0.14589341 0.0045016822 0.25308958
0.18987307 -0.12609245 -0.22128691 -0.00461602 -0.08280851 0.17550008 -0.17313386 0.19374321
-0.19759391 0.22826336 -0.227955 0.08564039 -0.11625541 0.043366753 0.17916243 -0.022313287
0.00041349704 -0.105622984 -0.20601828 0.17321149 0.22670445 -0.009654929 -0.20249075 -0.072321706
0.17705786 -0.094935164 -0.087325715 0.07328956 0.18611164 0.010045571 0.1398101 -0.12434657
-0.13568504 -0.13299361 -0.054729644 0.005727369 -0.21304397 -0.23276441 0.22372729 -0.067213014
