PatchTST_supervised/checkpoints/PatchTST-01_PatchTST_ETTh1_ftM_sl336_ll48_pl96_dm16_nh4_el3_dl1_df128_fc1_ebtimeF_dtTrue_test_0/checkpoint.pth (torch, 397167 bytes, 71 tensors)

model.backbone.W_pos f4 [42, 16]
00000000: 658c 893b 6287 6c3c 6b09 03bc 4c99 40bc
00000010: f415 3d3c 2bf0 973c bc57 923a a956 74bc
00000020: 180b 42bc 0579 93bc 5f9c cebb 2518 033c
00000030: 6f6a 1fb8 945b 083c 469b 893b 2305 863c
00000040: 5320 193c daea 6f3c aebe ed3b 7443 86bc
00000050: 529b 2c3c 315f 9f3c 9ead 523c ce37 a0bb
00000060: 2028 85bb d795 173c 61d0 6fbc ca6b 56bc
00000070: 61b0 a13b b077 ec3b 8e8d 9a3b 2794 b7bb
00000080: db2e f1bb 937a 98bb 3677 87bc 639f 16bb
00000090: 2ef5 3b3c f5dd 89bc 17ee afba d495 9a3c
000000a0: 5fd6 6eba 1524 fa3a 49ce 023c b03f ccbb
000000b0: 1099 96bc 8e8e cfbb db29 953c f857 d1bb
000000c0: c1a2 813c 24f1 173c a88c a93b 3a5d 5cbc
000000d0: 6b00 703c 93ad a03c 52ff 9bbc e14a 913c
000000e0: 2e60 8fbc 8630 72bc d933 293c 1156 603c
000000f0: 35fb bbbb 980a f4bb 806a aebb 2e76 103a
00000100: 8fe6 f43b 6c34 c3bb 07c9 94bc 9e9f 8ebc
00000110: 5222 8c3c 2c9f 4fbc 370a 41bc 5422 fa3b
00000120: 28bc 2b3c f1e5 30bc 5922 86bb 8c1e 2cbb
00000130: 15d3 80bb d19b 94bb 6ca9 6b3c f7d6 95bc
00000140: 0db1 243c 3007 143b 7114 813c c02c 30bb
00000150: d303 dbbb 62c8 87bb 7506 14bb 1041 a2bb
00000160: 8b14 1c3c 9a10 a03c 797d 07bc f32b 81bb
00000170: 768e a6ba b03c 983a 596b b43a 34ef 6b3c
00000180: 6566 843b 3250 893c 458a 1c3c f4b1 05bc
00000190: d7a5 96bc 8c1a cfbb d409 6f3a 2ddc 003c
000001a0: b6e7 90bc 16f8 18bc 141e 2b3c c7c1 89bb
000001b0: 534a 6e3c 34ae 90bc 9624 343c d610 80bb
000001c0: b8b8 0cbc df9c 2e3b 49dc 643b 5985 f4bb
000001d0: 6983 713c 6cd7 cdbb 6729 4c3b 5aae 7ebc
000001e0: 1617 bcbb 43c6 8e3c 65ef 383a 3147 373c
000001f0: 5a02 313b 58b7 833c 4480 43bc ef6f b23b
00000200: 8af8 31bc 4e90 f9ba b86e 95bc fcb3 703c
00000210: 1afc d53b d206 29bb 8d4c 01bc ad57 893c
00000220: ceec 63bc 833a 763c 2123 19bc bfd9 3eba
00000230: 918c 9e3c b425 4c3c 2a3f 6fbc 0eb1 513c
00000240: 0929 0c39 4ea7 493c 72cb 363c 753f f03a
00000250: efd8 6c3a 6043 1f3c db5a 67bc 7c05 5b3c
00000260: 1e50 4bbc 950c fd3b 7d06 8d3c 1b33 713c
00000270: 5683 0ebc a3fa 973c a3fd 3ebc a8b3 8ebb
00000280: d785 4dbc 965b 96bc 11a5 1d3b 391a 12bc
00000290: 2a37 89bc a6ae 703c e21d 4fbc 35f7 873b
000002a0: a7d6 973c fcff 943c d0c4 9f3b bd6a 3b3b
000002b0: b2a1 c93b e10e 953c aa51 183c 7862 773c
000002c0: b615 50bc 5c2c 143c d8e9 4b3c 2dcb 483c
000002d0: 21e4 2dbc 1955 703c 530f 283a e87f 97bc
000002e0: bf6a 713c 9fa9 7f3c 6144 39bc a400 5abc
000002f0: 920e 4c3c 7cb7 5a3c 3ba1 82bc 85e5 99bc
00000300: 7fa1 d0bb 95d1 6abc d3ea 9ebb 6b75 1d3c
00000310: 9edc 1fbc 40fa 973c 1263 cebb 96db ffbb
00000320: e3a1 9b3c 85a7 d0bb 9be3 6f3c d094 b63b
00000330: 3f93 573c e4dd 8e3c f26d 96bc 2bff 88bc
00000340: 6d0e 093b 2d04 71bb ef22 e53b 7de8 523b
00000350: 917c 2d3c c8f0 f23b 5971 953c 58db 4f3c
00000360: a7eb 703c 24da d33b 307c 8c3c 2d56 933c
00000370: 59b1 12bc fd00 ecbb 8bf7 67bc 4c80 90bc
00000380: 6084 6a3c 3014 383c 3641 663c 3920 9e3c
00000390: 0d1e 85bc 79b4 9fbb 127e a53b 4a29 57bc
000003a0: d116 51bc d958 fe3a 7760 133c 02e3 5ebc
000003b0: cda9 8a3c 1743 c53a 3ff0 2fba 4820 643b
000003c0: 6476 12bc 8ae2 b6ba ce5b 1d3c 289d c53b
000003d0: 222b 7d3c ff99 7ebc c3d0 20bc 1348 933b
000003e0: 8e30 213c c2a5 a03c 8569 ea3b 7f21 6e3c
000003f0: f451 e63b fdc1 9e3c daa3 1cbb 656c c7bb
0.0041976445 0.014436575 -0.007997851 -0.011755299 0.011540879 0.018547138 0.0011165063 -0.0149132395
-0.011843465 -0.018002043 -0.006305262 0.008001362 -3.8007678e-05 0.008322615 0.0041994182 0.016359871
0.009346086 0.014643395 0.007255397 -0.016389586 0.010535078 0.01945457 0.012858776 -0.004889465
-0.004063621 0.009252033 -0.014637084 -0.013087222 0.004934356 0.0072164163 0.0047165817 -0.005602378
-0.007360322 -0.004653284 -0.016536336 -0.0022983185 0.01147203 -0.01682947 -0.0013422397 0.018870272
-0.0009110923 0.001908424 0.0079837525 -0.006233178 -0.018383533 -0.0063341325 0.018208435 -0.0063886605
0.015824677 0.009273801 0.0051742382 -0.013449961 0.014648537 0.019614017 -0.019042645 0.0177359
-0.017501917 -0.014782077 0.010327303 0.013692395 -0.0057367333 -0.007447552 -0.0053227544 0.0005510774
0.007473774 -0.005957177 -0.018162264 -0.017410096 0.017106209 -0.012672227 -0.011782221 0.0076334868
0.010481872 -0.01079701 -0.00409345 -0.0026263325 -0.003931413 -0.0045351763 0.014383655 -0.01829098
0.010051978 0.0022587292 0.015756818 -0.0026882142 -0.0066838055 -0.0041437605 -0.0022586857 -0.0049516037
0.009526382 0.019539166 -0.008269661 -0.0039420067 -0.0012707252 0.0011614766 0.0013764902 0.014400292
0.0040405267 0.016761873 0.00955445 -0.008160103 -0.018389625 -0.0063203033 0.0009118591 0.007864994
-0.017688613 -0.009336492 0.010444183 -0.0042040083 0.014544087 -0.017661192 0.010995051 -0.003908257
-0.008588962 0.0026643795 0.003492134 -0.0074621853 0.014740803 -0.006281784 0.0031152607 -0.015544498
-0.0057400567 0.017428523 0.00070547155 0.011186407 0.0027009458 0.016078636 -0.011932436 0.0054454724
-0.010862479 -0.0019040199 -0.018241271 0.014691349 0.006530297 -0.0025791419 -0.007891786 0.01676544
-0.013911439 0.015028599 -0.009346754 -0.00072803715 0.019354137 0.012460161 -0.014602462 0.012798561
0.00013366727 0.012307955 0.011156904 0.0018329459 0.0009035011 0.009720653 -0.014120783 0.013368007
-0.012409238 0.007722447 0.017215008 0.014721657 -0.008698305 0.01855213 -0.011657151 -0.004354913
-0.012544117 -0.018354218 0.0024054686 -0.008917385 -0.016749937 0.014690077 -0.012641402 0.0041493424
0.018534971 0.01818847 0.004875757 0.0028597557 0.006153309 0.018195571 0.009296814 0.01509916
-0.012700489 0.009043779 0.012445889 0.012255472 -0.010613472 0.014668726 0.0006410975 -0.018493608
0.014734923 0.015604406 -0.011307807 -0.013305817 0.012454646 0.01334941 -0.015946021 -0.018786201
-0.006366908 -0.014332195 -0.0048497706 0.009610514 -0.009757189 0.018551946 -0.006298431 -0.007808159
0.018998092 -0.006367626 0.014641668 0.005571939 0.013157665 0.01743979 -0.018362973 -0.016723236
0.002091314 -0.003677617 0.00699269 0.003218203 0.010588781 0.0074139573 0.018242525 0.012686573
0.014704621 0.0064652134 0.017149061 0.017985428 -0.008953416 -0.0072022662 -0.01415814 -0.017639302
0.014313787 0.011235282 0.014053633 0.019302474 -0.01624968 -0.004873809 0.005050429 -0.013132403
-0.0127617875 0.0019405141 0.008995167 -0.013603928 0.01692667 0.0015049902 -0.00067115197 0.003480928
-0.008939359 -0.0013953012 0.0096044075 0.0060306974 0.015452178 -0.015539645 -0.009815398 0.004494676
0.0098382365 0.01961029 0.007153692 0.014534353 0.0070288125 0.01937961 -0.0023901374 -0.0060859197

model.backbone.W_P.weight f4 [16, 16]
00000000: 0475 3dbe 9e61 d33b d0e1 f73d 5a99 dc3d
00000010: 0a69 0f3d d59d 2bbe bf85 69be 93cf 6c3e
00000020: f909 d3bd 076b 4dbe 8175 1e3e 803f 77be
00000030: 522b 253e 7442 40be 2b47 ff3d a61f 8ebd
00000040: c2c5 d93b 136c d1bd 30da 103e 40be f53d
00000050: 76e2 1b3e 469a c9bd 78cd 7c3e 5202 833a
00000060: 2f1e 82bd 140a 6bbe 745d 2d3e c700 61be
00000070: 7e17 25be 369f adbd 40a3 be3d fe2e c93d
00000080: 394a 293e 46a2 343c d92a fa3d 23ad 283e
00000090: e38b 74be 881f 56be c0f6 76be 6ad4 34be
000000a0: b0a4 ff3d 2f16 643e 9a46 b23d 3af5 45be
000000b0: 1880 f73d 16a8 0f3e 6667 633e 3819 69be
000000c0: 2b1f 12bd e586 03be 5f8b 5f3e 576d 0e3e
000000d0: 0c15 f63c ffd1 7b3c dfe6 d93d 0228 49be
000000e0: e291 cfbc afc3 3fbe 0d04 b73d d5f3 9e3d
000000f0: 4ac3 5ebe fb11 31bc ab4c ed3d f7d5 003e
00000100: a0b5 713e d2a8 66be 8353 9fbd 7022 d1bd
00000110: 4f46 58be 261f 74be e678 3cbe 3573 ee3d
00000120: e97d 5abe 95cb eabd 9178 2bbe 563f 45be
00000130: 8fe2 663e 896a dcbc 225f abbd a720 693e
00000140: 3f7d 13be 8243 d8bd e31f a6bd af76 2bbe
00000150: 8e55 f5bd 6354 77bd 2d95 983c b4c9 16be
00000160: d176 20bc d513 7c3e faf8 793b fa93 f1bc
00000170: f23e 7cbe 2db6 3abe 3f63 023e 2563 193e
00000180: c94e 71be 7d71 5c3d dfe6 583d f08a c8bd
00000190: b236 483e 9d44 183d 7405 43be 0fbd 573e
000001a0: 8a18 ed3d 31c6 f2bd 2eda 9e3c 6968 3a3e
000001b0: 53dc 433e adfe f23d 8a68 8b3d 4ff9 64bc
000001c0: 5bcb 253d 46bf 3abe e2ce 583b ec4d 7abe
000001d0: a848 143e 37ca 31be e97d 2bbe c859 4d3e
000001e0: a22b a1bd 054b 27be fe38 4ebe b43d e63d
000001f0: 01f1 63be ba4c 433e 2452 a23d 6b1a 703e
00000200: 3431 c8bd a883 5ebe ff92 c5bc 65b4 4b3e
00000210: a041 f4bd 063b 6dbe cbb6 453e 42e6 343e
00000220: 27ff 4f3e f69f 243e 0281 2f3c 4c9c 4ebe
00000230: 12b2 30be 1608 ecbd e483 25be e269 46be
00000240: fdc1 413e db1e 3f3e 72fb 24be e877 81bc
00000250: 661f 763e 47ab f93d 5b73 52bd 1420 8fbd
00000260: ce88 023e 67ab c7bd e513 42be 8ada 8ebd
00000270: 05f4 223e 334f cebd aaf8 32be 829b bebd
00000280: 4be7 c4bd eb3d 3dbe 2baf a0bb 0e91 013e
00000290: bad7 6e3e 9c07 8c3d c82d 4b3e f27d c93d
000002a0: 5bc9 83bd a135 42be d1ed 84bd 321e f43d
000002b0: 640a 583d e1c7 88bd 6ed2 2cbc a451 ae3d
000002c0: cabf 0fbd 1fa0 3c3e 6bd5 22be 05ae f13c
000002d0: 2a73 043e 1c3a 4c3e 4894 0c3d f18c 893c
000002e0: 6125 5f3e 09d1 35be ec02 f2bd 5774 15be
000002f0: 5442 753e 24dd 3d3c 109b 4fbe b98c ec3c
00000300: 1b16 72be 0aa9 0b3e 2a44 483e 115b d53d
00000310: efb1 57bd b73f 0fbe 9fc5 5f3e fc4c 32bd
00000320: 7ba0 cf3d 640e 82bc aea5 523e 6f3d 30bd
00000330: 4c98 233e 5af9 3dbe fdda 56be 4d52 2c3d
00000340: dc87 573e 1477 26be 86e4 2a3e 0586 003d
00000350: d7bd 61be 4cfb 18be 0fa0 08bd d077 293d
00000360: 37d1 de3d 5c5a 673e 85fa 663e 4208 53be
00000370: 0986 103e ea7b 88bd b167 73bc e846 703e
00000380: 5f01 3bbd 767a d2bd a6d7 0d3e 9dad ac3b
00000390: 1266 943d ef8b c53c 4037 6e3e 3ca6 4c3e
000003a0: 82b0 a73d 839d da3c e559 9c3d f83e c5bd
000003b0: de1f 133e 894c 4f3e 5f54 473e e97f 0fbe
000003c0: 2e53 ebbd 3e17 5b3e d4a2 4a3e e2a6 1b3e
000003d0: 9f2b 523e ec6d 6a3e 949a 08be 847d 4bbe
000003e0: 824a 80bb 35ce 1b3e 12c0 e5bd 4b03 1cbe
000003f0: 1d57 7cbe fcf8 113d 2598 013d 8baf 09be
-0.18501669 0.006450846 0.12103617 0.10771437 0.035012282 -0.16759427 -0.22804926 0.23126058
-0.103046365 -0.20060359 0.15474512 -0.24145317 0.16129807 -0.1877535 0.12464746 -0.0693963
0.006645889 -0.10225692 0.14145732 0.11999178 0.15223107 -0.098438784 0.24687755 0.0009995198
-0.06353413 -0.22953063 0.16930181 -0.21972953 -0.16122243 -0.08477633 0.09308481 0.09823416
0.1653222 0.011025017 0.12215204 0.16472296 -0.23881488 -0.20910466 -0.24117565 -0.17659155
0.124825835 0.22274087 0.087048724 -0.19331828 0.12084979 0.14028963 0.22207412 -0.22763526
-0.035674255 -0.12844427 0.2183051 0.13908897 0.030039333 0.015369891 0.10639738 -0.19644168
-0.025338117 -0.18726991 0.089363195 0.07761351 -0.21754184 -0.0108075095 0.11586889 0.12581621
0.2360444 -0.22525337 -0.077796005 -0.102116466 -0.2112057 -0.23840007 -0.18405494 0.11643068
-0.21337093 -0.114646114 -0.16745211 -0.19262442 0.22547363 -0.026906269 -0.083677545 0.22766362
-0.14403246 -0.10559751 -0.08111551 -0.16744493 -0.11979209 -0.06038321 0.01862582 -0.14725381
-0.009793953 0.2461694 0.0038142786 -0.029489506 -0.24633387 -0.18233557 0.12733172 0.14979227
-0.2356521 0.05381917 0.05295455 -0.09792125 0.19552115 0.03717481 -0.19045049 0.21068214
0.11576946 -0.11854208 0.019391146 0.18203892 0.19127016 0.11864982 0.068070486 -0.013975455
0.040477138 -0.18237028 0.0033082296 -0.24443787 0.14480841 -0.17362295 -0.1674725 0.2005378
-0.078696504 -0.16337211 -0.20138928 0.11242238 -0.22259904 0.19072238 0.07925823 0.23447578
-0.0977501 -0.2172991 -0.024117945 0.19893034 -0.119265795 -0.23167047 0.19308011 0.17665961
0.20312177 0.16076645 0.01071191 -0.2017681 -0.17255428 -0.1152498 -0.16163594 -0.19376329
0.18921657 0.18664114 -0.16111544 -0.015804246 0.24035415 0.12190872 -0.051379543 -0.0698854
0.127475 -0.09749489 -0.18952902 -0.06975277 0.15913399 -0.100737 -0.1747767 -0.093070045
-0.09614428 -0.18480651 -0.004903694 0.1265299 0.2332448 0.06837389 0.19841683 0.09838475
-0.0643489 -0.1896577 -0.064906724 0.11919822 0.052744284 -0.06678749 -0.010548217 0.085116655
-0.035095014 0.18420456 -0.15901725 0.029501924 0.12934557 0.19944042 0.0343211 0.016790839
0.21791603 -0.17755522 -0.118169636 -0.14595161 0.23951083 0.011588369 -0.20273995 0.028875696
-0.23641245 0.13638702 0.19557253 0.1041776 -0.052659925 -0.13989149 0.2185273 -0.04353045
0.10138031 -0.015876003 0.20571014 -0.043027338 0.15976065 -0.18552151 -0.20981975 0.042070676
0.2104792 -0.16256362 0.16688737 0.03137781 -0.22045074 -0.14939612 -0.03335577 0.041374028
0.10879748 0.22593063 0.22556503 -0.20608619 0.1411363 -0.0666426 -0.014856265 0.23464549
-0.045655604 -0.10277264 0.13851795 0.0052697198 0.07246031 0.024114577 0.23263264 0.19985288
0.08187963 0.026686436 0.076343335 -0.09631151 0.14367625 0.2024404 0.19465779 -0.14013638
-0.11490475 0.21395585 0.19788677 0.1520038 0.20524453 0.22893494 -0.13340217 -0.19872099
-0.003915132 0.1521538 -0.11218275 -0.15235631 -0.24642606 0.03563784 0.031639237 -0.1344587

model.backbone.W_P.bias f4 [16]
00000000: 33b7 c33d b194 e2bc 4e30 4cbe 8a5c 06bd
00000010: 2aab 7cbe b279 753e 852b 6bbe 4b6f b33d
00000020: c167 10be a63c 23be 908b 053e 3d11 e13d
00000030: d24e 6b3e 0928 533e 4054 bfbd 7936 3dbd
0.09556427 -0.027658792 -0.19940302 -0.032803096 -0.24674669 0.23972204 -0.2296582 0.08761462
-0.14102079 -0.15941104 0.1304152 0.10989616 0.22979286 0.20620741 -0.09342241 -0.046194527

model.backbone.encoder.layers.0.self_attn.W_Q.weight f4 [16, 16]
00000000: c382 4cbe a8a3 8cb9 ce90 30be 0c99 77be
00000010: 5181 d4bd e2e8 debd bfa5 233e 0877 54be
00000020: 5298 4f3d c9db 13be b365 06be db30 5ebe
00000030: fdaf dc3d 4039 783d 8928 1ebd 772f 6fbe
00000040: 4191 643e 7e10 02bd 2d4a 5ebe fa08 393e
00000050: fc6a 77be 9edd c53d d35f 193e 5f23 093e
00000060: c195 593e e744 2abe e7a1 72be ef30 4f3e
00000070: 4d41 813d 27c2 db3d a8bb d43d 004e 0fbe
00000080: f7a6 163e 6954 873d 6d9c a23d 93a5 12be
00000090: 96ce 33be 4878 41bd afa4 5bbe dc82 0cbd
000000a0: 435f 713c 819a 25be 016b 4dbd 83f6 0f3e
000000b0: fe9f 5abe c895 933d f7c0 463e 13b0 173e
000000c0: 3b1d 32be 5e55 693d a7d2 493c e43b 99bd
000000d0: 1c3c b63d eb60 023d 0f04 22be abb6 483e
000000e0: 6333 e2bd bad6 d63d 7968 e33d 1d1f 1a3e
000000f0: f125 7dbd 58f3 f3bd 1d88 053e 916b 693e
00000100: d5f6 35be 5718 7abd 9d24 523e 8282 543d
00000110: 505c fb3d 2713 5bbd 9e10 0a3e 4629 443d
00000120: 2e5c 3ebe aa95 603e fd7f 68be 56dc 293e
00000130: f247 28be 52c6 6a3e ebd6 ce3d cf5c 753e
00000140: d384 5e3e 670b 083d 1aef 5f3e cdcc 2abe
00000150: 43cd 2ebe d81b 5abe 5295 17be a585 0c3e
00000160: 98c0 033e 1611 69be 9076 4fbe 20bf 2a3e
00000170: ae07 743e 11ad 163e 8ad4 393d b925 b5bd
00000180: 4769 053d 130b 2c3e 33f8 54be 3f17 d4bd
00000190: ce27 c13c be3b 78be c6d7 c2bb f6f2 1c3d
000001a0: 9926 963d 4b0d febd 8d0b 1b3e 5a55 6dbe
000001b0: a642 79be 8c98 3e3d 2807 113e 93d7 903a
000001c0: 14e8 393e 1ed5 ff3d 9bd0 1e3e 0829 2bbd
000001d0: 8ad5 2f3e 3417 46be 1a6f 0ebe bb31 f4bd
000001e0: d969 1a3e 3b7b 5b3e f8eb 10be b045 123e
000001f0: 8044 0ebe c56f 883d c6d4 3e3e 2560 7f3d
00000200: 3fdb 78bc a707 21bb aef7 88bc a432 73be
00000210: bdd2 383d dd8e 7f3b 9f18 7c3e f863 40be
00000220: 3426 6c3e 876e 673e d994 64be e130 51bd
00000230: a9f1 ca3d e96c eb3d 5737 d4bd fed1 2cbe
00000240: b7f1 eebd 39b6 b7bd 9747 c43d 06fe b8bc
00000250: ba54 d83d bf27 28bd f9dc 5c3d 3c69 d03d
00000260: 3c5f 52be 5384 debd ce3b 79be ae59 c1bd
00000270: 8813 3ebe 31ec 7cbe fcac 663e c9fd d5bd
00000280: 516a d6ba d6b0 22be 7c49 5b3c f3c1 6cbe
00000290: cc79 46bd 8f27 22bd 8bef 273d abdf 923c
000002a0: ea27 203e a62c 24ba f5af e5bd 7f8d 723e
000002b0: 1426 44bd 0e33 643e 22bc 46be eacf 13be
000002c0: 8777 56be e2c6 23be 5cc9 1e3c 8985 3f3e
000002d0: 9a6e 40be 9817 9e3d 1f49 313e 9779 743e
000002e0: 7aca a93d afe8 d4bd 49b4 5dbe 3f5b 0c3d
000002f0: 41f6 093e a3ac c23c fbb2 e93d 97a0 5f3e
00000300: 31c5 fcbc d495 2dbe 8d85 1abd c87e a3bd
00000310: 5987 103e cd19 f03d a7af 03bc e179 073e
00000320: b342 7fbe ed67 2fbe dcf3 0d3c 7fde 5e3d
00000330: f76f 4f3e 603e 953c 613a 1ebe 6bcb 62bd
00000340: a487 30be 2a8d fbbd c7ba acbd b9a7 173e
00000350: 121c 7b3e 91ee 513d d8d6 3ebe 0682 69be
00000360: 76d9 dabd d343 4abe 8ba9 30be abd9 5fbe
00000370: 8b9b 253d 2ca4 dd3c a5d3 f5bc 5402 7c3c
00000380: 4cf3 0e3d 3af7 843d 20f8 b73c ef0e 62bd
00000390: a897 82bc ab0e 69be a9a7 3bbe f5cd 16be
000003a0: ee81 393e 22ed 4a3e 555b 3dbe fe5f da3d
000003b0: 6395 bdbc ff15 813d 3194 50be 69c7 74be
000003c0: 75ae 04be 570b af3d 7b8a 673d 1f60 14bd
000003d0: f18d 9cbd c293 1bbb ea67 f2bd dbf0 b63d
000003e0: beda 783d f345 cdbd 5cde aa3d 740e 5fbd
000003f0: 7242 9f3d 94bc bd3d 3bcc 5d3e 6caf 183e
-0.19971757 -0.00026824814 -0.17242739 -0.24179476 -0.10376228 -0.108842626 0.15981196 -0.20748532
0.050682373 -0.1443931 -0.13124733 -0.21698324 0.107757546 0.060601473 -0.038612876 -0.2335795
0.22321035 -0.03175401 -0.21707983 0.1806983 -0.24161905 0.09661411 0.1497796 0.13392399
0.21248533 -0.16627847 -0.23694573 0.2023351 0.06311283 0.10730391 0.10387355 -0.13994598
0.1471213 0.06607897 0.07939992 -0.14320974 -0.17559275 -0.04723385 -0.2144954 -0.034304485
0.014732185 -0.1617222 -0.050150875 0.1405888 -0.21350095 0.07206303 0.19409548 0.1481326
-0.17393963 0.056966178 0.01231829 -0.07482126 0.08898184 0.03183071 -0.1582186 0.19600932
-0.110449575 0.104901746 0.11103911 0.15050931 -0.061803762 -0.119116485 0.13040204 0.2279494
-0.1776994 -0.06105837 0.2052178 0.051882274 0.122734666 -0.053485062 0.13482901 0.047890924
-0.18589851 0.21932092 -0.22705074 0.16587958 -0.16433695 0.22927216 0.10099586 0.23961185
0.21730356 0.033214 0.21868554 -0.16679688 -0.17070489 -0.21299684 -0.14803055 0.13722856
0.12866437 -0.22760424 -0.20260072 0.16674471 0.23831055 0.14714457 0.04536871 -0.08845086
0.032571103 0.168011 -0.20797805 -0.10355996 0.02357855 -0.2424154 -0.0059461324 0.038317643
0.07331581 -0.12404879 0.15141125 -0.2317709 -0.2434183 0.0465322 0.14162886 0.0011050574
0.18154937 0.12491821 0.15509264 -0.041787177 0.17171302 -0.19344789 -0.1390957 -0.11923548
0.1507944 0.21433727 -0.14152515 0.14284396 -0.13893318 0.06661943 0.18635854 0.06234755
-0.015188991 -0.0024571212 -0.016719665 -0.23749787 0.04512285 0.0038995065 0.24618767 -0.18788135
0.23061448 0.22600757 -0.22322406 -0.051072005 0.09909374 0.11495382 -0.10362118 -0.1687698
-0.11667197 -0.08970303 0.09583967 -0.022582065 0.10563035 -0.04105353 0.053921673 0.10176322
-0.20544142 -0.108650826 -0.2433922 -0.09440933 -0.18562138 -0.24699475 0.22526926 -0.10448796
-0.0016358589 -0.1588777 0.013384219 -0.23120861 -0.048456 -0.039588507 0.04099993 0.017928919
0.15640226 -0.00062627567 -0.11215202 0.23686789 -0.047887877 0.22285101 -0.19407704 -0.14434782
-0.20944034 -0.15993837 0.0096915625 0.18703283 -0.18792191 0.07719344 0.1731305 0.23874508
0.082905725 -0.103959434 -0.21650805 0.034266707 0.13472845 0.02376396 0.11411091 0.21838604
-0.030855747 -0.16951686 -0.03772502 -0.07983166 0.14114131 0.11723671 -0.008037484 0.13230087
-0.24927787 -0.17129488 0.008664098 0.054411408 0.20257555 0.01821822 -0.15451957 -0.055369776
-0.17239243 -0.12282784 -0.084340625 0.14810075 0.24522427 0.051252905 -0.18636644 -0.22803506
-0.10686009 -0.19752435 -0.17252176 -0.21860377 0.04043154 0.027055822 -0.030008147 0.015381414
0.034899995 0.06492467 0.022457182 -0.055190023 -0.015941456 -0.22759502 -0.18325676 -0.14727004
0.1811597 0.19817021 -0.18491872 0.1066284 -0.023142522 0.063030235 -0.2036903 -0.23904194
-0.12957175 0.08547085 0.05652855 -0.03622448 -0.07644261 -0.0023739194 -0.11836226 0.08932658
0.060755484 -0.100231074 0.08343193 -0.054457143 0.07776345 0.09264484 0.21659939 0.14910668

model.backbone.encoder.layers.0.self_attn.W_Q.bias f4 [16]
00000000: 34ef 60be f57e 113d da2f f8bc dadf 25be
00000010: 9015 66be 03c3 573e 3dfd 54be 7279 2f3e
00000020: 28f5 023e 0c5d e0bd 156a dbbd 6ae2 093e
00000030: c767 f53d 54b7 debc 1133 a7bd fb0e acbd
-0.21966249 0.035521466 -0.030296255 -0.16198674 -0.22469163 0.21070485 -0.20799728 0.17136171
0.12788832 -0.10955247 -0.10713593 0.13465276 0.119826846 -0.027187027 -0.08164037 -0.08401295

model.backbone.encoder.layers.0.self_attn.W_K.weight f4 [16, 16]
00000000: 7280 8bba 004c 68be 35b0 91bd 7df2 15be
00000010: ecdc 3abe 102b aa3d da7a 2cbe abe5 a0bd
00000020: ce02 b23d f313 f93d 8096 34bc 7040 76be
00000030: dbba 5b3c 4bb2 2dbe 963f 42be d0ab e73d
00000040: b4d2 5c3e 6e12 2f3e e6cd 6dbe 8c18 01be
00000050: 2137 21be c731 333e 7165 6b3e dd5a 39be
00000060: 7060 1ebe ce24 7a3e fb2d 073e a683 29bc
00000070: cdfb 483e 5345 2a3e d334 4ebe 1a09 39be
00000080: ccf7 863d f000 4b3e 92fe d33c 1fa1 5dbc
00000090: 756f 273e 6144 2fbe 3a95 65be 104a d03d
000000a0: ffcd c0bd 02b3 67be 518c 37be 2184 a2bd
000000b0: 9696 aaba c4f5 ecb9 75f4 4ebe d6ed 683e
000000c0: 0134 f83d ebf6 463e fda8 20be 4b92 6a3e
000000d0: 7e86 4c3d 4e33 22be e791 fb3c e3cf 363e
000000e0: aa24 dfbd 639b 273e f22c 1cbe c030 76be
000000f0: 2b4e 553e 924b 46bd dc79 3ebe ffa4 033e
00000100: 8bf7 133e b7ea 9dbd 8727 733e 158c 59be
00000110: fae6 213e ca3c a03c ee14 623e 105f 14be
00000120: 643d 14bd c7e2 7abe 758d 79be 0112 af3c
00000130: 58f7 223e dfe8 043e 4ba3 25be 7d74 6b3c
00000140: 8bf5 d5bd edfd 5a3c 8a8e 18be 8e84 90bd
00000150: f271 ed3d 7ebe 143e 5fd5 a5bb 41c5 ca3d
00000160: 7375 2d3e 0f30 49be 4b9d dabd 9ba0 313d
00000170: ff3b 00be ef69 2dbe b02b c93b 2d11 303d
00000180: d192 393e f6cf 5abe 3b04 b9bd f7ba 833d
00000190: eb8f 173e 7127 78be 8305 da3d 9262 6a3e
000001a0: a0f0 703d f126 5d3d 938d b03d 280c a6bd
000001b0: d859 c23d 7663 cd3d a4b3 273c 961b c5bd
000001c0: 7363 383e c3f5 083e 1f25 7cbe 79f5 5bbc
000001d0: 7591 37be 56f7 3bbd d9b2 673d e012 20bd
000001e0: f6c1 703e 4a2a 413e 26ac 1abd db02 6a3e
000001f0: 834f a5bd caa4 90bc d557 dfbd 427b d23d
00000200: 0e8c 7ebe d087 46be 43b1 1dbe 913b f63d
00000210: e9ec e03c 8830 5ebe 65ec 1b3e f31c 5b3e
00000220: 9aa7 4b3e 3282 1d3d 569c 8cbc 6575 52be
00000230: 0319 723d 17b2 7d3e dc17 d0bd d49e 70be
00000240: d08e f5bd 53a9 c43d dbe7 18be 36c8 433e
00000250: e6fc c73d 8766 f23d cfa2 babd 16e2 d7bd
00000260: 0a76 44be 75bf 0a3d 20bb 433e 7a97 2e3e
00000270: 8812 163e 93bb 73be fab9 2b3e f8a2 ee3d
00000280: dc74 413e 6be7 3fbe 9307 573e c960 b0bc
00000290: 4e92 8c3d 44fd 2fbe 9190 433d 6fe7 023e
000002a0: 1dd6 7dbc e4f2 17be fb56 a0bd 5504 523d
000002b0: f934 95bc 44ad 253d e13e c4bd 2152 733e
000002c0: 5b5a fd3c 6169 28be 22c2 f0bd c8b3 15be
000002d0: 4fa0 4b3e 4eaf 46be 6785 483e 0bc6 003e
000002e0: d9b4 873d 69ce 613d c6ce 5cbe 0fd8 ea3d
000002f0: 0895 35be 1aee 493e 5564 63be 9f84 4f3e
00000300: 4172 7d3e c454 023e 528c 6cbe dce2 7b3e
00000310: 3052 0fbe 0e05 c83c e360 603e 1b37 81bd
00000320: b781 ad3d 1397 2a3d 7003 383e 7ecf 11be
00000330: 3f62 bb3d d1c4 1d3e 0bab 8ebd 84ca 243e
00000340: bddc 1cbc 6e0d 483e 6965 bfbd ff0b 243e
00000350: 2a78 733e d897 4d3e 19b1 163e c3cf 6c3e
00000360: a36f 853b 81f8 6a3e 14fe 5d3e cf0e 92bd
00000370: a376 283e 2e00 8fbd 1030 3ebe aabd 67be
00000380: 7ded 5ebe 46df 843d 3abd 553e 3e0d 2e3d
00000390: 248e 263e 62a4 4fbe 9a6f be3b dc21 183e
000003a0: db4b e1bd 2098 eb3d 53fe fabd 7406 4e3e
000003b0: 2ce8 24be a17d 013e bb92 89bd 9182 d73d
000003c0: 9204 5c3e 5d93 9cbd 5031 77be 975b aebc
000003d0: 274a 7abe 68c0 1f3e 0fd6 553d 5c28 7cba
000003e0: 63cb 77bd 60ec 2abd 30a8 503e 97e0 53bd
000003f0: ce95 333e 0ce4 52be e267 70be 64f2 26be
-0.0010643138 -0.22685242 -0.07113687 -0.14643283 -0.18248338 0.08308995 -0.16843739 -0.07856306
0.08691941 0.12162008 -0.01102221 -0.24048018 0.013411249 -0.16962545 -0.18969569 0.113120675
0.21564752 0.17096874 -0.23223075 -0.1260702 -0.15743686 0.17499457 0.22987916 -0.18101068
-0.15466475 0.24428102 0.13201134 -0.010346329 0.19627304 0.16628008 -0.20137338 -0.18069878
0.06590232 0.19824576 0.025878225 -0.013527184 0.16351111 -0.17115928 -0.22420207 0.10170376
-0.09414291 -0.2262688 -0.1792462 -0.07935358 -0.0013014849 -0.00045196537 -0.2021044 0.22746977
0.12119294 0.19430129 -0.15689464 0.22907369 0.04993295 -0.15839884 0.03070922 0.1785274
-0.10895665 0.16367869 -0.1525152 -0.24042034 0.208306 -0.048411913 -0.18601173 0.1285591
0.14449899 -0.07710784 0.23745547 -0.21244843 0.15810767 0.019560236 0.22078297 -0.14489388
-0.03619136 -0.24500571 -0.24370368 0.02137089 0.15914667 0.12979458 -0.16175573 0.014371035
-0.10447224 0.013366205 -0.14898124 -0.07056533 0.11593999 0.14525792 -0.005060836 0.099009044
0.16939335 -0.19647239 -0.106745325 0.043366056 -0.12522887 -0.16934942 0.006139241 0.04298513
0.18122412 -0.21368393 -0.0903401 0.06432145 0.14800994 -0.24233796 0.106455825 0.22889164
0.058823228 0.053992216 0.08620753 -0.08107787 0.094897926 0.10028736 0.010235701 -0.09624402
0.18006687 0.13375 -0.24623536 -0.013425224 -0.17926581 -0.045890175 0.056567047 -0.0390805
0.2351149 0.18863788 -0.03776183 0.22852652 -0.08071806 -0.017656703 -0.109054245 0.10277416
-0.24858114 -0.19387746 -0.15399651 0.1202308 0.027456718 -0.216982 0.15226896 0.21397762
0.19888154 0.038454242 -0.01716439 -0.20552595 0.059105884 0.24774967 -0.10160801 -0.23498088
-0.1199013 0.096026085 -0.14932196 0.19119343 0.097650334 0.11835962 -0.091130845 -0.10541169
-0.19185653 0.033873994 0.19114351 0.17049971 0.14655507 -0.23802023 0.16770163 0.116521776
0.18892235 -0.18740623 0.20998983 -0.021530526 0.06863843 -0.17186457 0.04774529 0.12783597
-0.015492943 -0.14838749 -0.0782909 0.051273663 -0.018213736 0.040448442 -0.09582306 0.23761798
0.030926874 -0.16446449 -0.11755778 -0.14619362 0.19885372 -0.19402811 0.19582139 0.12575547
0.06626291 0.05512849 -0.21563253 0.11466991 -0.17732632 0.19719735 -0.22206242 0.20265435
0.24750616 0.12727648 -0.23100403 0.24598259 -0.13996196 0.024416473 0.2191196 -0.06309339
0.08472007 0.04164798 0.17970061 -0.14239308 0.09149598 0.15407111 -0.069662176 0.16092879
-0.0095741125 0.19536373 -0.09345514 0.16020201 0.23776308 0.20077455 0.14715995 0.2312613
0.004072146 0.22946359 0.21678954 -0.07131731 0.16451506 -0.06982456 -0.18573022 -0.22630945
-0.21770282 0.064878985 0.20872965 0.042493097 0.1626516 -0.20277551 0.005811644 0.14856666
-0.110007964 0.11503625 -0.1225554 0.20119649 -0.16104192 0.1264558 -0.0671744 0.105229504
0.21486118 -0.07645295 -0.24139905 -0.021283908 -0.2444235 0.15600741 0.052206095 -0.0009619051
-0.0604967 -0.04172933 0.20376658 -0.051727857 0.17537615 -0.20594805 -0.23477128 -0.16303402

model.backbone.encoder.layers.0.self_attn.W_K.bias f4 [16]
00000000: 6f5e 393e 6431 8cbd aaa4 cabd 62a3 5c3d
00000010: f793 613e 53c7 0ebe ed61 ddbd 9864 923d
00000020: b820 053e ca1a 203d e201 65be bdfe 51be
00000030: 2d65 49bc 0eec b93d 0273 203d 764a 57be
0.1810243 -0.06845358 -0.098946884 0.05386675 0.220291 -0.13943224 -0.108096935 0.07148093
0.13000762 0.039088048 -0.22364 -0.20507331 -0.012292189 0.09078227 0.03917218 -0.21024498

model.backbone.encoder.layers.0.self_attn.W_V.weight f4 [16, 16]
00000000: 9ee3 b73d 3b24 9ebc 8855 ac3d 37f2 2cbe
00000010: bafa dbbd 96a6 0abd 42e0 863b ccaa a23d
00000020: 932e f9bd 0869 853d c19d 103e 8aeb 863c
00000030: 5583 d5bc 35a8 4c3e 2332 483e 531c 513e
00000040: 1c50 ebbd 31e2 183e f846 a43d 729f df3d
00000050: 00fd 9c3d 5ae4 5cbd a1d8 983c 60bf 253e
00000060: 8cad 43be 5972 72be ea80 39be 62df 9abc
00000070: 3ad4 cdbd d06e b23d 198d 043e 2eeb fc3d
00000080: 0840 473d 9b6e 8b3c ffa6 11be a149 263d
00000090: 6e4c f63d 9b46 043e b522 dbbd ee74 a43d
000000a0: b466 75be fa15 433e 6b55 e83d bd71 a8bc
000000b0: 1aff 21be 7322 3e3e cdaa 56be 26c2 423e
000000c0: 3f94 88bd 9772 ca3d d207 22be ece9 cabb
000000d0: b237 213d 4626 613e 7f03 e2bd a9d7 50be
000000e0: 9c2e 69bd d9b1 c2bd 95c1 0dbe 7012 85bd
000000f0: 79c5 eabd e690 f43d 2c1f 85bd 04a8 cd3d
00000100: 51e2 013e 9e2e 923d 3bfc 05be 89dc cabd
00000110: 0d46 393b 8a8b d7bc a999 773e 27c9 6b3e
00000120: edc7 66be da32 8f3c d1b6 02be 77dc 1d3e
00000130: c9be 42be 98e3 4abd 829a 363e 8ec5 26be
00000140: 3088 2c3e b552 25be 285b 753e 1725 8a3d
00000150: f884 13bd 0749 853c 213a c43d 0d59 0abe
00000160: 8fdf 633e f99f 1b3e b552 4cbe 0ea3 9b3d
00000170: cfad 6f3e 9678 b5bd 8649 733e b636 07be
00000180: 73a3 5bbe 6713 4dbe ac35 d93d c603 613e
00000190: 7c38 243e 9aa9 8ebc 2b5a 363e ae69 a13d
000001a0: 52d2 33be 3d95 823d 8686 c4bc 26ae 103e
000001b0: 606e 733e 885f 27bd cf70 d83d e1f3 61be
000001c0: b38c 46bd 10ab eebd ae86 0abb a55c 36be
000001d0: f970 843d a529 303e d0ed 54be f098 643e
000001e0: 1b71 d13d 8aa7 efbd e327 4d3c 2414 24be
000001f0: bf3d 763e 1325 3ebe 5286 6e3e 4e46 e1bd
00000200: a134 a03d e823 15be ae53 ff3c 58e6 ca3d
00000210: 8624 893b 3541 c63d c0a0 d6bd 8a56 0abe
00000220: 104c 57be 91c2 4ebe 36c4 9bbd 6c3c d73c
00000230: bf79 98bc 1c51 83bd 7007 4dbe 8dfc aebc
00000240: db3b 3c3e de3d babd b65c 35be 9ef5 7f3d
00000250: c320 21be bd0f 5dbd b3bc 473d 8cd4 943c
00000260: 69d1 5c3e c23a 003e 8c3a 5cbe 3b8d 353d
00000270: b3ab 553c db57 823d 2eec 153e 5c97 273e
00000280: b111 0ebe 1b98 1d3e 9af3 b43d 7880 94ba
00000290: b500 023e 117c 2d3e 8160 32be 4d7b 0dbe
000002a0: cc9b 063e 8355 553e 30c1 cfbd 4ea0 1dbe
000002b0: d214 59be 1aef a1bd 6ff2 81bc eadc 10be
000002c0: 8b06 3abd f80f 69bd a7eb 113d 7cdc 173e
000002d0: 82f4 333e 7cdb d83d 83d2 55be 5b39 e23d
000002e0: 5320 b63c e745 493e 8e8f 88bc 1973 2e3d
000002f0: a01b 51be 16f4 debd a1c6 14be 7abb 1ebe
00000300: 819f 323d ea50 88bd caf6 3e3e ea1c 353d
00000310: d1d9 56be 502c 53bb 2573 36be 0911 39be
00000320: 66da 73bd 121a f7bc 2a01 67bc 33e4 3cbe
00000330: a244 36be 77f9 6d3d a8f0 10be f059 08be
00000340: 18e8 36be 9046 7ebe 20af d9bc 60c4 123e
00000350: fdd1 dbbd ec83 3bbd 990c cbbd 7f6e a8bc
00000360: d834 69be bacb 72be 896e 2dbe 794b 9dbc
00000370: 7088 24be da8b 813d 7c47 6abd 784c 4f3e
00000380: bd2d d43d 5737 7c3d 7fcb b4bd 799d 61be
00000390: 4f2c 4bbe aebf 64be 093c 223e b06d ddbd
000003a0: 0c20 633d ec0f 4d3e 027a 4f3e 2ca0 9d3d
000003b0: 7af3 1c3e eea0 5bbe b745 8bbd c0b1 52be
000003c0: 674b 1d3e ace7 f9bc 3e8d 493e 010f af3d
000003d0: 022a e53d 2dab 7cbe 67f3 e83d 63c1 fd3d
000003e0: abcd 7bbe a9b0 3ebe 84cc 99bd 62fe 8bbc
000003f0: 3bc5 393e 1e41 30be 9799 7abe 2886 cabd
0.089789614 -0.019304385 0.08414751 -0.16889273 -0.10741182 -0.033850275 0.004116089 0.07942733
-0.121670865 0.06514174 0.14122678 0.016469736 -0.0260636 0.19986041 0.19550376 0.20420961
-0.11489889 0.14930035 0.08021349 0.10919084 0.076654434 -0.05392871 0.018657984 0.16186285
-0.19109172 -0.23676433 -0.18115583 -0.018905345 -0.10050245 0.08712542 0.1294445 0.123495445
0.04864505 0.017020514 -0.1422386 0.04059756 0.120262966 0.12917559 -0.10699979 0.08030115
-0.2396496 0.19051352 0.11344417 -0.020562047 -0.1581997 0.18567829 -0.20963593 0.19019374
-0.06668901 0.098851375 -0.15823296 -0.0061924364 0.039359756 0.21987256 -0.11035823 -0.20394768
-0.056929216 -0.09506578 -0.13843377 -0.06497657 -0.11463446 0.119417 -0.06500086 0.10041812
0.12683989 0.07137798 -0.130845 -0.09905345 0.0028270513 -0.026311655 0.2417971 0.23025952
-0.22537203 0.017480303 -0.12765051 0.15416132 -0.19018091 -0.049533457 0.17832378 -0.16286299
0.16848826 -0.16144831 0.23960555 0.067453556 -0.03601548 0.016270174 0.095814 -0.13510533
0.2225325 0.15197743 -0.19953425 0.075994596 0.23406146 -0.088608906 0.23758516 -0.13204464
-0.2144907 -0.20026933 0.1060594 0.21974096 0.16037172 -0.017414857 0.17807834 0.07881485
-0.175607 0.06376121 -0.023989927 0.14128932 0.23772573 -0.04086259 0.105683915 -0.22065689
-0.048474025 -0.11653721 -0.0021137404 -0.17808779 0.0646686 0.17203386 -0.20793843 0.22323966
0.10226651 -0.117018774 0.012521717 -0.16023308 0.24046992 -0.1856883 0.23293427 -0.10999738
0.07822538 -0.14564478 0.031167831 0.09907216 0.004185262 0.09680406 -0.104798794 -0.13509575
-0.2102511 -0.20191409 -0.07605784 0.026273929 -0.01861274 -0.06411955 -0.20022368 -0.02136066
0.18382208 -0.090938315 -0.17711148 0.0624901 -0.15735154 -0.053970087 0.048763942 0.018167756
0.21564259 0.12522414 -0.21506709 0.04432414 0.013041425 0.06364413 0.14640877 0.16366333
-0.13873936 0.15390055 0.08835526 -0.001132979 0.12695582 0.16941859 -0.17419626 -0.13816567
0.1314537 0.20833401 -0.101442695 -0.15393183 -0.21199349 -0.07906933 -0.015862672 -0.14146772
-0.045416396 -0.056899995 0.035625126 0.14830202 0.17573741 0.10588738 -0.20881085 0.11046096
0.02223221 0.19655572 -0.016670015 0.042590234 -0.20420694 -0.108863994 -0.14528896 -0.15501204
0.043609146 -0.06656058 0.1864883 0.044217028 -0.20981528 -0.0032222457 -0.17817362 -0.18072905
-0.059534453 -0.030163798 -0.014099399 -0.18446426 -0.17799619 0.058099236 -0.14154303 -0.13315558
-0.17861974 -0.24831605 -0.026572764 0.14332724 -0.107334115 -0.045780107 -0.09914512 -0.020560501
-0.22774065 -0.23710528 -0.16936697 -0.019201027 -0.16067672 0.06325503 -0.05719708 0.20244014
0.103602864 0.061576214 -0.08827876 -0.22032727 -0.19841121 -0.22338745 0.15843214 -0.10811937
0.055450484 0.20025605 0.20261386 0.07696566 0.15327254 -0.21448109 -0.068004064 -0.20575619
0.15360795 -0.030505978 0.19682786 0.08547784 0.11189653 -0.24674673 0.1137455 0.12390401
-0.24590175 -0.18622078 -0.075097114 -0.017089073 0.18141644 -0.1721234 -0.24472652 -0.098888695

model.backbone.encoder.layers.0.self_attn.W_V.bias f4 [16]
00000000: 365e afbd 0e76 3bbe bb78 71bd 0067 c63d
00000010: 9d8f 3a3e f1af 0dbe e14f 35bd 8599 09be
00000020: 1462 36be e5e0 693e 5d1b a9bd ac96 71be
00000030: 8c5b e13d 595b 69bd 02c9 eebd ff6a ffbd
-0.08562891 -0.18306753 -0.05895303 0.096876144 0.18218847 -0.13836648 -0.04426563 -0.1343747
-0.17810851 0.22839697 -0.08257172 -0.23592633 0.11003789 -0.05697188 -0.11659433 -0.1247158

model.backbone.encoder.layers.0.self_attn.to_out.0.weight f4 [16, 16]
00000000: 2b4f 58be 8e14 25be bb6d 79be 06ab f63d
00000010: 8968 133e e9d0 2fbe 1f00 983d 2151 6c3e
00000020: 4507 03be 6aa6 69be dc5f 6ebe a866 8fbd
00000030: 4894 673e 9a4d 6dbd 06d4 7b3e c1db 4e3e
00000040: 0dd2 b73d 3582 4c3d 35dd 6bbc 6aae 9e3d
00000050: 2902 54be 144c 59be 3d8b 173d 117a c5bd
00000060: 3afc 2dbe a69b 71bd 5734 183e bf66 2f3e
00000070: 96b7 e23d fe09 ac3c 61ce 08be df40 773e
00000080: 03ed 0d3e bf54 78bd 9c31 a23b b77c 15bc
00000090: 90d8 3dbd 27f6 673e 1d8f 103e d677 7f3e
000000a0: 0a31 52bd 0274 a73c 5d2d b93d ec3c 21be
000000b0: be2d 703e 8e0d 00be 9f9e 97bd b804 32bd
000000c0: 5398 3dbd 4605 57bd 20fa 9dbd 92c6 183e
000000d0: f4d2 a73d 1c6b 223e f20d b63d faab 4cbe
000000e0: 070b 7fbd 3444 4b3d eea3 26be 69e8 2ebe
000000f0: 273f 713e 31aa 413e fc46 dabd db45 2e3e
00000100: 65a2 21be 66aa 573d c896 093e 74b2 033e
00000110: 0c7a 02bd 938a 473e 1d03 08be 666d 74be
00000120: f1c4 743e 0237 373e c8ca 623e cc93 fa3d
00000130: 924c a53d 369e cb3d d27c a6bd 39f2 48be
00000140: 8814 25bd 3ad0 5bbe f07a babd 890a 973d
00000150: a217 8ebd 97bb 09be 6bd2 adbd b482 b1bd
00000160: 13c1 483e 5954 22be 001b 3f3c fea4 3a3c
00000170: 0687 88bd 0ec4 403d 33d6 7d3e ae96 2bbe
00000180: 428b 2bbe 08fa 6cbe e570 2c3c aafa 54be
00000190: 4d74 3b3e 0fd1 d63d 089d 05be 8801 053e
000001a0: 7755 51be ddb8 f63d 27b7 513e 010b 41be
000001b0: aa7a 303e 60e4 3bbe fe4a 323c 86f1 6d3e
000001c0: ee9a 4abe b9ba 3b3e 4a16 36bd 2498 45be
000001d0: 6430 063e 0c67 463e b1da ed3d 866e 623e
000001e0: 65db a7bd 0399 1e3e a59b 5abe a511 38be
000001f0: feef 4a3c be19 d33d 4db3 193e fd10 0c3e
00000200: 4abe 20be cb12 4c3d 38c5 653c 8bfc 0ebe
00000210: 3a1c 37be 7a1b 1d3d 8ae2 df3d b713 873d
00000220: 2fa9 233e 57b8 aa3d f30b 37be 1b6f 2abe
00000230: ea78 5a3e cdca 153c 3038 583e e696 4fbe
00000240: 2a55 503e 37ce 02be e17e ccbc bd94 693e
00000250: e83a 853d 5511 8cbd ee42 573d 2632 07be
00000260: 47cb d7bd c635 2abe ab7d f03d 21a5 22be
00000270: 8c69 4dbd 43e2 693e 9b51 a73d c9e1 43be
00000280: a2c5 09be c6c8 69be f1e9 4a3e 258a 7abe
00000290: b33b e53c 056f 4dbe 684c a9bc 9f45 eb3d
000002a0: 95bc d83d 4c1f 323e dd63 1c3e 23f1 76be
000002b0: 7368 32be b0cd 5b3d 2eac f7bd b935 fcbc
000002c0: 214b 24be c4a5 db3d 0f49 4a3e 5f00 79be
000002d0: 58b1 bc3d 43e7 963d efac 1dbe 7008 1abe
000002e0: fb1a 23be 745f 7bbd 2ff5 01be 6334 63be
000002f0: c0cb 4cbc 28ea 84bc 10a9 013e 1677 293e
00000300: 7b20 293e 5aba ac3d 66f9 6abe f235 3dbe
00000310: f223 f2bd d6d9 0c3e e4c3 6abe 8ecc 573e
00000320: eaec 9abd 8f22 12be 1247 3c3e 9532 1d3e
00000330: 967e afbd c47c d4bd 04a7 03be 68cc a4bd
00000340: 2381 863d 9d7b 143d 4ecf d0bc a34b 5a3c
00000350: 660f 04be 9bbd 863d 5b7b 6dbe 3894 59bd
00000360: 8563 7abe 1381 d4bd 0bf8 6dbd 2299 fb39
00000370: 0857 363e c5f9 79be fe60 d43d 3935 423e
00000380: 8c36 6cbe 8655 353d 0c69 803d 9e5c 72be
00000390: c458 793e 7509 763e 7492 d8bd 3f33 4dbe
000003a0: 753f fc3d a574 21be 2b03 4dbe ecfc ae3d
000003b0: 2869 8a3d 2207 443c b18c 403e d170 413e
000003c0: 297f a43d ef64 ae3d 55b8 6cbe 2a94 27bd
000003d0: 3d42 26be 44ee 9c3d 3410 55be 8f3f b7bc
000003e0: a2e5 0abe 11e6 2bbe 68d1 79be 8a4e 0b3e
000003f0: 45ec 183e 9c6e 3cbe 32b4 523d cf75 3ebe
-0.2112395 -0.16121122 -0.24358265 0.12044339 0.14395346 -0.17169537 0.07421898 0.23077823
-0.12795742 -0.22817388 -0.23278755 -0.07002002 0.22615159 -0.057935335 0.245926 0.20201017
0.08975611 0.049928863 -0.014396002 0.077481106 -0.20703949 -0.21220428 0.036998022 -0.09642423
-0.16990748 -0.05898633 0.14863716 0.17129038 0.110701725 0.021000858 -0.13359977 0.2414584
0.13859944 -0.060627695 0.0049497616 -0.009123973 -0.04634911 0.22652493 0.14117093 0.24948058
-0.0513163 0.020441059 0.090418555 -0.15745896 0.2345495 -0.1250517 -0.074033014 -0.04346153
-0.046287846 -0.052495264 -0.07713723 0.14919499 0.08194533 0.15861171 0.088893786 -0.19987479
-0.062266376 0.04962559 -0.16273472 -0.17080845 0.23559247 0.18912579 -0.106580704 0.17018835
-0.15784605 0.05265274 0.13436425 0.12861043 -0.031854674 0.19486456 -0.13282438 -0.23869857
0.23903252 0.17892078 0.22147667 0.12235221 0.08071245 0.09942286 -0.08129276 -0.1962365
-0.040302783 -0.21466151 -0.0910548 0.07375056 -0.06938101 -0.13450466 -0.084874 -0.08667508
0.19604902 -0.15852489 0.011664152 0.011391876 -0.06666379 0.047061972 0.24788742 -0.16756698
-0.16752341 -0.23142254 0.010524963 -0.20798746 0.18306084 0.104890935 -0.13048184 0.12988865
-0.20442759 0.120469786 0.20480023 -0.18851854 0.17234293 -0.18348837 0.010882137 0.23236665
-0.19785663 0.18332948 -0.04445485 -0.19296318 0.13104397 0.19375247 0.11613978 0.22112474
-0.08196143 0.15488057 -0.21348436 -0.17975481 0.01238632 0.10307644 0.15009804 0.13678356
-0.1569759 0.04982261 0.014024071 -0.13963525 -0.17881861 0.03835628 0.10931881 0.06595557
0.15982507 0.08335941 -0.17875652 -0.16643946 0.21335188 0.00914259 0.21115184 -0.20272407
0.20344988 -0.12773977 -0.024962844 0.22810645 0.06505376 -0.06839243 0.052554063 -0.13202724
-0.10536819 -0.16622075 0.11742719 -0.15883304 -0.050149485 0.22840218 0.08169862 -0.19129099
-0.13454297 -0.22830495 0.19815804 -0.2446676 0.027982568 -0.20061882 -0.020666316 0.114878885
0.10582844 0.17394751 0.1527247 -0.24115424 -0.17422657 0.053662956 -0.120933875 -0.030787336
-0.16044284 0.10724977 0.19754432 -0.24316548 0.09213513 0.073683284 -0.15398 -0.15042281
-0.15928261 -0.061370328 -0.12691186 -0.22187953 -0.01249975 -0.016224936 0.12662148 0.16549334
0.16516297 0.08433981 -0.229467 -0.1847761 -0.11823262 0.13754973 -0.22926289 0.21074125
-0.07564719 -0.14270996 0.18386486 0.15351327 -0.08569066 -0.1037536 -0.1285668 -0.080468
0.065675996 0.0362507 -0.025489476 0.013323697 -0.12896499 0.06579133 -0.23191588 -0.053119868
-0.24452026 -0.103761815 -0.05809788 0.00047988544 0.17806637 -0.24411686 0.10370062 0.18965615
-0.23067683 0.044271015 0.06270036 -0.23668143 0.24350268 0.24027045 -0.10574809 -0.2003908
0.12316791 -0.15767153 -0.2002074 0.08544335 0.06758338 0.011964591 0.1880367 0.18890692
0.080320664 0.08515345 -0.23117192 -0.040912785 -0.16236205 0.07662633 -0.20806962 -0.022369174
-0.1356416 -0.16786982 -0.24396288 0.13604179 0.1493388 -0.18401569 0.05144138 -0.18599628

model.backbone.encoder.layers.0.self_attn.to_out.0.bias f4 [16]
00000000: 6cc5 6dbe fee3 3abe 9f73 3b3e dc08 7cbe
00000010: eb4b d6bc cecb 523e 50d4 34bd baa3 0dbe
00000020: aa20 1bbc 68a6 cc3d 7f5e ebbd f036 11be
00000030: 885b 3c3e c793 21be 52a2 f7bc 54ed ffba
-0.23219842 -0.18251035 0.18305825 -0.24612755 -0.026159247 0.20585558 -0.04414779 -0.13831988
-0.009468237 0.09992677 -0.11492633 -0.14181113 0.18394291 -0.15779029 -0.030228768 -0.0019525685

model.backbone.encoder.layers.0.norm_attn.1.weight f4 [16]
00000000: 1c03 803f 7af1 7f3f 7af1 7f3f 0607 803f
00000010: f207 803f f9f4 7f3f 12f2 7f3f 1402 803f
00000020: abf9 7f3f a7f0 7f3f b707 803f 14f8 7f3f
00000030: ee03 803f cc04 803f f206 803f 3ef5 7f3f
1.0000949 0.9997784 0.9997784 1.0002143 1.0002425 0.99983174 0.99978745 1.0000634
0.9999034 0.9997658 1.0002354 0.9998791 1.0001199 1.0001464 1.000212 0.99983585

model.backbone.encoder.layers.0.norm_attn.1.bias f4 [16]
00000000: cb48 3539 8d3e 03b9 1963 9838 8097 7639
00000010: d652 61b9 e009 7037 c1e8 33b9 09c4 5e39
00000020: d048 16b8 237a 5639 dbe9 2e39 ccef 1e37
00000030: 5b05 59b9 a8e1 a6b8 b892 54b9 281f 1339
0.00017288623 -0.00012516436 7.266383e-05 0.00023516826 -0.00021488531 1.4307414e-05 -0.00017157478 0.00021244599
-3.58306e-05 0.0002045413 0.00016681051 9.473366e-06 -0.00020696728 -7.9575286e-05 -0.00020272553 0.00014030619

model.backbone.encoder.layers.0.norm_attn.1.running_mean f4 [16]
00000000: d4d9 cb3d 5245 a3bc d398 47be 0687 fbbc
00000010: db0b 74be e3a6 7b3e c721 6bbe b00f c93d
00000020: b9b2 0dbe 7ba5 18be 53e9 083e b221 ed3d
00000030: 3d2b 713e 2ab1 5c3e 5c0f b1bd d36d 2bbd
0.09953657 -0.019930515 -0.19491892 -0.030704033 -0.23832648 0.24575381 -0.22962104 0.09817445
-0.13837709 -0.14906876 0.13370256 0.115786925 0.2355165 0.21551958 -0.08645508 -0.041852783

model.backbone.encoder.layers.0.norm_attn.1.running_var f4 [16]
00000000: 84c0 2f3f e9f1 4b3f 9714 683f 652a 233f
00000010: e5f6 eb3f b562 8d3f 36db 813f f7b0 863f
00000020: 4968 943f c0c3 713f 9066 413f d02a 3d3f
00000030: bf50 3b3f be43 5f3f c201 b13f 432f a53f
0.6865313 0.79666 0.9065642 0.63736564 1.8434721 1.1045748 1.0145023 1.0522755
1.1594325 0.94439316 0.7554712 0.7389345 0.73170084 0.8721274 1.3828661 1.2905048

model.backbone.encoder.layers.0.ff.0.weight f4 [128, 16]
00000000: bda1 4fbc 1037 163e c553 bb3d 0c09 edbd
00000010: a56c 423e e9f3 55bd 2d92 1fbe 08c1 a9bd
00000020: 561c 28be 2cc4 8ebd 0e13 ba3d 4925 123e
00000030: 48ed 403e 9b7c 5d3c 7787 0e3d f126 4b3d
00000040: def7 50bd 218f 01bd 2640 873d 8a62 49be
00000050: 9396 00be 0f3d aebd 10a2 0e3e 6c22 273d
00000060: 640f 8c3d 25aa eb3d 254f 0c3e fe9d 653d
00000070: bf2d 54bd b1ae 85bd 6033 223c 3bfd 72bc
00000080: 02e1 c6bc 1f53 33be 2344 efbc 9d15 b33d
00000090: 5658 693e fe41 003e fa55 70bd 462b 703d
000000a0: 933f 733e e3e1 58be af43 e53d 06cf 79be
000000b0: b93f 25be 9460 09be 928e 23be c70f 74be
000000c0: 140c 5ebe 1d86 643d a0b5 e7bd e196 a3bd
000000d0: 9ece 23be d1bb 553e 0ff1 41bb c0ae ce3d
000000e0: 1593 c23d 7412 3abd 8f06 7b3e 8ed1 7abb
000000f0: 395d 57be db22 7ebe 6755 f63d 1ee6 753e
00000100: 9cbf 1f3e 03d0 81bd 4e23 7b3e f78b 473e
00000110: ac3d f53d 620d 1f3e 5e66 5b3d 57dd 14be
00000120: e2c8 6c3e 515c d9bd b5df 26be 73c2 fd3d
00000130: 4eba a7bc ea09 573e da40 f5bd d7a2 b8bc
00000140: 5c6e 4fbe a80a 963b 9c4b 033e 9d9b 4ebe
00000150: 9873 d7bc 29a7 0e3e af26 273e 05c4 24bd
00000160: eef3 fabd 8986 413b 200a 403e 7a9d 863c
00000170: d39a 04be bcdc a3bd 1c7e edbd 42f4 183e
00000180: 4e72 e63d 7260 97bd e562 373e d80c 5d3e
00000190: 4283 3e3d 22d1 61be 586d 7b3e c2ac 393c
000001a0: 70ed debd 99ba b03d 77e2 483e ed4d 5d3e
000001b0: 931c 41bd 39df 4e3e 9e4f e03c 8ea9 8bbc
000001c0: 0bd8 fd3d e881 95bd 8f04 debc 4772 663d
000001d0: 6d41 ce3d cfc7 5a3e de64 e4bd ba7d a2bd
000001e0: 33c6 65bd 5c5c a93c 65cd a6bd 560f 743d
000001f0: 4d11 0ebe 6c9c 4ebe 4b38 d63d f0a3 6fbe
00000200: d7e2 11be 4250 853d 4494 7cbe 2da3 b63c
00000210: d1b6 383e d346 7dbd e0c3 65be 2e31 efbd
00000220: c4dc 15be da57 90bd bd4a aebd 78ca 61be
00000230: 1891 86bd 74e5 edbd 5ab5 1f3e 1066 f1bd
00000240: c2d5 bf3d 83fd 29bd 5b4a 75be 61de c9bd
00000250: b424 52be d9d5 1d3e c7f8 07be 655f 09bd
00000260: c0f3 5ebd 087e 29bd 569e b83d 5925 67be
00000270: 66ed 8fbc 8f98 c63c c317 7dbd 25ca 213d
00000280: 9573 1ebe fa3b 743e b63f 29be 0ae3 41be
00000290: 0c24 523e 7eba f8bd 1ebb 193d 231d 393e
000002a0: 0d94 1e3e 15a5 483e ad20 1fbe 3171 143d
000002b0: c83c 23bc 3232 19be 1adf b83d 2ed2 cebd
000002c0: e2b6 c53d 94c2 11bc f0a9 133d 6691 b2bd
000002d0: ba26 723e 7ab8 14be 5e45 d83c b3dc 62be
000002e0: 3739 45be ebff 05be 2ea0 42be d1af 773d
000002f0: 9dda acbd 339f 62be 833c 103e 6ad3 37be
00000300: b4ec 3e3e d604 2abe 3baa 123e b732 203e
00000310: ff31 38bc e450 273e 9eae efbc 1778 b43d
00000320: e9d2 9fbd 45b8 d93d 5db3 2a3e 37e7 e1bd
00000330: bb8b a1bd 4041 79be 8fdb 05be 4ab9 8ebc
00000340: cd37 cbbd a42a 31be 46ec 47be b44a 473e
00000350: 103a 64be 7142 3dbe d8a2 bdbd ac56 433e
00000360: 7dd4 29be 3f06 b2bd 9f61 13be 88d1 8abd
00000370: 7f44 e53d cbea babc 8306 dfbd 608d a1bc
00000380: 9b59 223e 908d 113e 05f8 fcbc eea4 313e
00000390: 3e19 27be 02b6 29be 185c 0f3e 15f9 a63d
000003a0: c6fd a0bd 1fc5 fabc 0626 183c e624 4fbe
000003b0: cec8 f3bd 63be 3cbe 9821 c73d 988d 8a3d
000003c0: c07c d63d 90bd 6b3e 72b5 6ebe e3a1 e6bd
000003d0: 18ef e4bd 8baa ec3d 7a1e c4bd 37ec 7f3d
000003e0: 0040 643e bce4 1cbb 7dad 43be ac0f ce3d
000003f0: d0db 1f3e 639d 87bd df77 6ebe 9670 4e3e
-0.012672839 0.14669442 0.09146837 -0.11573991 0.18986757 -0.052234564 -0.15583105 -0.08288771
-0.1641706 -0.069710106 0.09085666 0.14272036 0.18840516 0.013518478 0.034797158 0.049597684
-0.051017635 -0.03163064 0.06604032 -0.19666496 -0.1255744 -0.0850774 0.1392901 0.04080431
0.06838873 0.11507062 0.13702066 0.056058876 -0.05180144 -0.0652746 0.009899944 -0.014830883
-0.024277214 -0.17512177 -0.029207295 0.08744357 0.22787604 0.12525174 -0.058675744 0.05863502
0.2375472 -0.21179919 0.1119455 -0.2439538 -0.1613759 -0.13415748 -0.15972355 -0.23834144
-0.21684295 0.055791963 -0.11313939 -0.07987762 -0.15996787 0.20872428 -0.0029593145 0.10091925
0.0950071 -0.045427755 0.2451422 -0.0038271877 -0.21031655 -0.24817984 0.12028008 0.24013564
0.15600437 -0.06338503 0.24525186 0.19486986 0.119746536 0.15532449 0.05356442 -0.1453756
0.23123506 -0.10613311 -0.16296275 0.12390604 -0.02047458 0.20999876 -0.1197526 -0.022538586
-0.20256943 0.004578907 0.12821811 -0.2017655 -0.026300237 0.13930954 0.1632335 -0.040226
-0.12253557 0.0029529652 0.18753862 0.016432513 -0.12949686 -0.08001086 -0.11596319 0.14936927
0.11252271 -0.07391442 0.17908819 0.21586931 0.046511896 -0.22052434 0.2455343 0.011332693
-0.10885131 0.08629341 0.1961764 0.21611758 -0.04714639 0.2020234 0.027381714 -0.017048623
0.123947226 -0.07300168 -0.027101783 0.056261327 0.10071073 0.21365283 -0.111520514 -0.07934137
-0.05609722 0.020673923 -0.08144645 0.059584938 -0.13873787 -0.20176858 0.10459956 -0.23402381
-0.14246689 0.065094486 -0.24665934 0.022294605 0.18038489 -0.06183512 -0.22438002 -0.11679302
-0.14634997 -0.07048006 -0.08510349 -0.22049892 -0.06570643 -0.1161603 0.15596524 -0.11787045
0.09366943 -0.041501533 -0.23954146 -0.098568685 -0.20521814 0.15413608 -0.13278495 -0.03353824
-0.054431677 -0.04137996 0.09014575 -0.22572841 -0.017569255 0.024242667 -0.06179024 0.03949942
-0.15473779 0.23851004 -0.1652821 -0.18934265 0.20521563 -0.121449456 0.037531964 0.18077521
0.15486164 0.19594224 -0.15539809 0.03624076 -0.009963222 -0.14960554 0.09026928 -0.10098682
0.09654023 -0.008896489 0.036050737 -0.08719139 0.23647586 -0.14523497 0.026400264 -0.22154503
-0.19260107 -0.13085906 -0.19006416 0.060470406 -0.08440135 -0.22131042 0.14085583 -0.17951742
0.18644983 -0.16603407 0.1432275 0.15644346 -0.011242389 0.16339451 -0.029258069 0.08811968
-0.078039 0.1063085 0.16669984 -0.11030429 -0.078879796 -0.24341297 -0.13072036 -0.017422337
-0.099227525 -0.17301422 -0.19523725 0.1946209 -0.22287774 -0.18482377 -0.092595756 0.19076031
-0.16584964 -0.086925976 -0.14392708 -0.06778246 0.11194705 -0.022817036 -0.10889914 -0.019720733
0.15854494 0.14214158 -0.030879984 0.17348072 -0.16318223 -0.16573337 0.13999975 0.081529774
-0.078609034 -0.030611573 0.009286409 -0.2022892 -0.11903535 -0.18432002 0.097232044 0.06765288
0.10473013 0.23021531 -0.23311403 -0.11261346 -0.11178416 0.11555966 -0.095761254 0.06248113
0.22290039 -0.0023940047 -0.1910915 0.10061583 0.15611196 -0.06621816 -0.23287915 0.20160136
